{
  "Layers": [
    {
      "Name": "/stem/conv/conv.0/input_quantizer/QuantizeLinear",
      "LayerType": "Reformat",
      "Inputs": [
        {
          "Name": "input",
          "Location": "Device",
          "Dimensions": [
            1,
            3,
            256,
            256
          ],
          "Format/Datatype": "Row major linear FP32"
        }
      ],
      "Outputs": [
        {
          "Name": "/stem/conv/conv.0/input_quantizer/QuantizeLinear_output_0",
          "Location": "Device",
          "Dimensions": [
            1,
            3,
            256,
            256
          ],
          "Format/Datatype": "Four wide channel vectorized row major Int8 format"
        }
      ],
      "ParameterType": "Reformat",
      "Origin": "QDQ",
      "TacticValue": "0x0000000000000000",
      "StreamId": 0,
      "Metadata": "[ONNX Layer: /stem/conv/conv.0/input_quantizer/QuantizeLinear]"
    },
    {
      "Name": "stem.conv.0.weight + /stem/conv/conv.0/weight_quantizer/QuantizeLinear + /stem/conv/conv.0/Conv",
      "LayerType": "CaskConvolution",
      "Inputs": [
        {
          "Name": "/stem/conv/conv.0/input_quantizer/QuantizeLinear_output_0",
          "Location": "Device",
          "Dimensions": [
            1,
            3,
            256,
            256
          ],
          "Format/Datatype": "Four wide channel vectorized row major Int8 format"
        }
      ],
      "Outputs": [
        {
          "Name": "/stem/conv/conv.2/Relu_output_0",
          "Location": "Device",
          "Dimensions": [
            1,
            16,
            256,
            256
          ],
          "Format/Datatype": "Row major linear FP32"
        }
      ],
      "ParameterType": "Convolution",
      "Kernel": [
        3,
        3
      ],
      "PaddingMode": "kEXPLICIT_ROUND_DOWN",
      "PrePadding": [
        1,
        1
      ],
      "PostPadding": [
        1,
        1
      ],
      "Stride": [
        1,
        1
      ],
      "Dilation": [
        1,
        1
      ],
      "OutMaps": 16,
      "Groups": 1,
      "Weights": {
        "Type": "Int8",
        "Count": 432
      },
      "Bias": {
        "Type": "Float",
        "Count": 16
      },
      "HasBias": 1,
      "HasReLU": 1,
      "HasSparseWeights": 0,
      "HasDynamicFilter": 0,
      "HasDynamicBias": 0,
      "HasResidual": 0,
      "ConvXAsActInputIdx": -1,
      "BiasAsActInputIdx": -1,
      "ResAsActInputIdx": -1,
      "Activation": "RELU",
      "TacticName": "volta_fp32_icudnn_int8x4_128x32_relu_small_nn_v1",
      "TacticValue": "0x170705f9b2fc8d53",
      "StreamId": 0,
      "Metadata": "[ONNX Layer: /stem/conv/conv.0/weight_quantizer/QuantizeLinear]\u001e[ONNX Layer: /stem/conv/conv.0/Conv]\u001e[ONNX Layer: /stem/conv/conv.1/BatchNormalization]\u001e[ONNX Layer: /stem/conv/conv.2/Relu]\u001e[ONNX Layer: /stem/conv/conv.0/input_quantizer/DequantizeLinear]\u001e[ONNX Layer: /stem/conv/conv.0/weight_quantizer/DequantizeLinear]"
    },
    {
      "Name": "/encoder1/block/block.0/block.0.0/fn/fn.0/input_quantizer/QuantizeLinear",
      "LayerType": "Reformat",
      "Inputs": [
        {
          "Name": "/stem/conv/conv.2/Relu_output_0",
          "Location": "Device",
          "Dimensions": [
            1,
            16,
            256,
            256
          ],
          "Format/Datatype": "Row major linear FP32"
        }
      ],
      "Outputs": [
        {
          "Name": "/encoder1/block/block.0/block.0.0/fn/fn.0/input_quantizer/QuantizeLinear_output_0",
          "Location": "Device",
          "Dimensions": [
            1,
            16,
            256,
            256
          ],
          "Format/Datatype": "Four wide channel vectorized row major Int8 format"
        }
      ],
      "ParameterType": "Reformat",
      "Origin": "QDQ",
      "TacticValue": "0x0000000000000000",
      "StreamId": 0,
      "Metadata": "[ONNX Layer: /encoder1/block/block.0/block.0.0/fn/fn.0/input_quantizer/QuantizeLinear]"
    },
    {
      "Name": "encoder1.block.0.0.fn.0.weight + /encoder1/block/block.0/block.0.0/fn/fn.0/weight_quantizer/QuantizeLinear + /encoder1/block/block.0/block.0.0/fn/fn.0/Conv",
      "LayerType": "CaskConvolution",
      "Inputs": [
        {
          "Name": "/encoder1/block/block.0/block.0.0/fn/fn.0/input_quantizer/QuantizeLinear_output_0",
          "Location": "Device",
          "Dimensions": [
            1,
            16,
            256,
            256
          ],
          "Format/Datatype": "Four wide channel vectorized row major Int8 format"
        }
      ],
      "Outputs": [
        {
          "Name": "/encoder1/block/block.0/block.0.0/fn/fn.0/Conv_output_0",
          "Location": "Device",
          "Dimensions": [
            1,
            16,
            256,
            256
          ],
          "Format/Datatype": "Row major linear FP32"
        }
      ],
      "ParameterType": "Convolution",
      "Kernel": [
        3,
        3
      ],
      "PaddingMode": "kEXPLICIT_ROUND_DOWN",
      "PrePadding": [
        1,
        1
      ],
      "PostPadding": [
        1,
        1
      ],
      "Stride": [
        1,
        1
      ],
      "Dilation": [
        1,
        1
      ],
      "OutMaps": 16,
      "Groups": 16,
      "Weights": {
        "Type": "Int8",
        "Count": 144
      },
      "Bias": {
        "Type": "Float",
        "Count": 16
      },
      "HasBias": 1,
      "HasReLU": 0,
      "HasSparseWeights": 0,
      "HasDynamicFilter": 0,
      "HasDynamicBias": 0,
      "HasResidual": 0,
      "ConvXAsActInputIdx": -1,
      "BiasAsActInputIdx": -1,
      "ResAsActInputIdx": -1,
      "Activation": "NONE",
      "TacticName": "sm61_xmma_convolution_trt_depthwise_i8_conv_int8ncxhw4_fp32nchw_int8kcrs_R3_S3_U1_V1_spv4",
      "TacticValue": "0x8926a0b331eb960f",
      "StreamId": 0,
      "Metadata": "[ONNX Layer: /encoder1/block/block.0/block.0.0/fn/fn.0/weight_quantizer/QuantizeLinear]\u001e[ONNX Layer: /encoder1/block/block.0/block.0.0/fn/fn.0/Conv]\u001e[ONNX Layer: /encoder1/block/block.0/block.0.0/fn/fn.0/input_quantizer/DequantizeLinear]\u001e[ONNX Layer: /encoder1/block/block.0/block.0.0/fn/fn.0/weight_quantizer/DequantizeLinear]"
    },
    {
      "Name": "PWN(PWN(PWN(PWN(PWN(/encoder1/block/block.0/block.0.0/fn/fn.1/Constant_output_0 + ONNXTRT_Broadcast, /encoder1/block/block.0/block.0.0/fn/fn.1/Div), /encoder1/block/block.0/block.0.0/fn/fn.1/Erf), /encoder1/block/block.0/block.0.0/fn/fn.1/Constant_1_output_0 + ONNXTRT_Broadcast_8 + /encoder1/block/block.0/block.0.0/fn/fn.1/Add), /encoder1/block/block.0/block.0.0/fn/fn.1/Mul), /encoder1/block/block.0/block.0.0/fn/fn.1/Constant_2_output_0 + ONNXTRT_Broadcast_10 + /encoder1/block/block.0/block.0.0/fn/fn.1/Mul_1)",
      "LayerType": "PointWiseV2",
      "Inputs": [
        {
          "Name": "/encoder1/block/block.0/block.0.0/fn/fn.0/Conv_output_0",
          "Location": "Device",
          "Dimensions": [
            1,
            16,
            256,
            256
          ],
          "Format/Datatype": "Row major linear FP32"
        }
      ],
      "Outputs": [
        {
          "Name": "/encoder1/block/block.0/block.0.0/fn/fn.1/Mul_1_output_0",
          "Location": "Device",
          "Dimensions": [
            1,
            16,
            256,
            256
          ],
          "Format/Datatype": "Row major linear FP32"
        }
      ],
      "ParameterType": "PointWise",
      "ParameterSubType": "PointWiseExpression",
      "NbInputArgs": 1,
      "InputArgs": [
        "arg0"
      ],
      "NbOutputVars": 1,
      "OutputVars": [
        "var4"
      ],
      "NbParams": 0,
      "Params": [],
      "NbLiterals": 5,
      "Literals": [
        "1.414214e+00f",
        "0.000000e+00f",
        "1.000000e+00f",
        "0.000000e+00f",
        "5.000000e-01f"
      ],
      "NbOperations": 5,
      "Operations": [
        "auto const var0 = pwgen::iDiv(arg0, literal0);",
        "auto const var1 = pwgen::iErf(var0);",
        "auto const var2 = pwgen::iPlus(var1, literal2);",
        "auto const var3 = pwgen::iMul(arg0, var2);",
        "auto const var4 = pwgen::iMul(var3, literal4);"
      ],
      "TacticValue": "0x0000000000000009",
      "StreamId": 0,
      "Metadata": "[ONNX Layer: /encoder1/block/block.0/block.0.0/fn/fn.1/Div]\u001e[ONNX Layer: /encoder1/block/block.0/block.0.0/fn/fn.1/Erf]\u001e[ONNX Layer: /encoder1/block/block.0/block.0.0/fn/fn.1/Add]\u001e[ONNX Layer: /encoder1/block/block.0/block.0.0/fn/fn.1/Mul]\u001e[ONNX Layer: /encoder1/block/block.0/block.0.0/fn/fn.1/Mul_1]"
    },
    {
      "Name": "/encoder1/block/block.0/block.0.0/fn/fn.2/BatchNormalization",
      "LayerType": "Scale",
      "Inputs": [
        {
          "Name": "/encoder1/block/block.0/block.0.0/fn/fn.1/Mul_1_output_0",
          "Location": "Device",
          "Dimensions": [
            1,
            16,
            256,
            256
          ],
          "Format/Datatype": "Row major linear FP32"
        }
      ],
      "Outputs": [
        {
          "Name": "/encoder1/block/block.0/block.0.0/fn/fn.2/BatchNormalization_output_0",
          "Location": "Device",
          "Dimensions": [
            1,
            16,
            256,
            256
          ],
          "Format/Datatype": "Row major linear FP32"
        }
      ],
      "ParameterType": "Scale",
      "Mode": "CHANNEL",
      "Shift": {
        "Type": "Float",
        "Count": 16
      },
      "Scale": {
        "Type": "Float",
        "Count": 16
      },
      "Power": {
        "Type": "Float",
        "Count": 0
      },
      "Activation": "NONE",
      "ChannelAxis": 1,
      "TacticValue": "0x0000000000000000",
      "StreamId": 0,
      "Metadata": "[ONNX Layer: /encoder1/block/block.0/block.0.0/fn/fn.2/BatchNormalization]"
    },
    {
      "Name": "PWN(/encoder1/block/block.0/block.0.0/Add)",
      "LayerType": "PointWiseV2",
      "Inputs": [
        {
          "Name": "/encoder1/block/block.0/block.0.0/fn/fn.2/BatchNormalization_output_0",
          "Location": "Device",
          "Dimensions": [
            1,
            16,
            256,
            256
          ],
          "Format/Datatype": "Row major linear FP32"
        },
        {
          "Name": "/stem/conv/conv.2/Relu_output_0",
          "Location": "Device",
          "Dimensions": [
            1,
            16,
            256,
            256
          ],
          "Format/Datatype": "Row major linear FP32"
        }
      ],
      "Outputs": [
        {
          "Name": "/encoder1/block/block.0/block.0.1/input_quantizer/QuantizeLinear_output_0",
          "Location": "Device",
          "Dimensions": [
            1,
            16,
            256,
            256
          ],
          "Format/Datatype": "Row major Int8 format"
        }
      ],
      "ParameterType": "PointWise",
      "ParameterSubType": "PointWiseExpression",
      "NbInputArgs": 2,
      "InputArgs": [
        "arg0",
        "arg1"
      ],
      "NbOutputVars": 1,
      "OutputVars": [
        "var0"
      ],
      "NbParams": 0,
      "Params": [],
      "NbLiterals": 0,
      "Literals": [],
      "NbOperations": 1,
      "Operations": [
        "auto const var0 = pwgen::iPlus(arg0, arg1);"
      ],
      "TacticValue": "0x0000000000000005",
      "StreamId": 0,
      "Metadata": "[ONNX Layer: /encoder1/block/block.0/block.0.0/Add]\u001e[ONNX Layer: /encoder1/block/block.0/block.0.1/input_quantizer/QuantizeLinear]"
    },
    {
      "Name": "Reformatting CopyNode for Input Tensor 0 to encoder1.block.0.1.weight + /encoder1/block/block.0/block.0.1/weight_quantizer/QuantizeLinear + /encoder1/block/block.0/block.0.1/Conv + PWN(PWN(PWN(PWN(PWN(/encoder1/block/block.0/block.0.2/Constant_output_0 + ONNXTRT_Broadcast_16, /encoder1/block/block.0/block.0.2/Div), /encoder1/block/block.0/block.0.2/Erf), /encoder1/block/block.0/block.0.2/Constant_1_output_0 + ONNXTRT_Broadcast_18 + /encoder1/block/block.0/block.0.2/Add), /encoder1/block/block.0/block.0.2/Mul), /encoder1/block/block.0/block.0.2/Constant_2_output_0 + ONNXTRT_Broadcast_20 + /encoder1/block/block.0/block.0.2/Mul_1)",
      "LayerType": "Reformat",
      "Inputs": [
        {
          "Name": "/encoder1/block/block.0/block.0.1/input_quantizer/QuantizeLinear_output_0",
          "Location": "Device",
          "Dimensions": [
            1,
            16,
            256,
            256
          ],
          "Format/Datatype": "Row major Int8 format"
        }
      ],
      "Outputs": [
        {
          "Name": "Reformatted Input Tensor 0 to encoder1.block.0.1.weight + /encoder1/block/block.0/block.0.1/weight_quantizer/QuantizeLinear + /encoder1/block/block.0/block.0.1/Conv + PWN(PWN(PWN(PWN(PWN(/encoder1/block/block.0/block.0.2/Constant_output_0 + ONNXTRT_Broadcast_16, /encoder1/block/block.0/block.0.2/Div), /encoder1/block/block.0/block.0.2/Erf), /encoder1/block/block.0/block.0.2/Constant_1_output_0 + ONNXTRT_Broadcast_18 + /encoder1/block/block.0/block.0.2/Add), /encoder1/block/block.0/block.0.2/Mul), /encoder1/block/block.0/block.0.2/Constant_2_output_0 + ONNXTRT_Broadcast_20 + /encoder1/block/block.0/block.0.2/Mul_1)",
          "Location": "Device",
          "Dimensions": [
            1,
            16,
            256,
            256
          ],
          "Format/Datatype": "Four wide channel vectorized row major Int8 format"
        }
      ],
      "ParameterType": "Reformat",
      "Origin": "REFORMAT",
      "TacticValue": "0x0000000000000000",
      "StreamId": 0,
      "Metadata": ""
    },
    {
      "Name": "encoder1.block.0.1.weight + /encoder1/block/block.0/block.0.1/weight_quantizer/QuantizeLinear + /encoder1/block/block.0/block.0.1/Conv + PWN(PWN(PWN(PWN(PWN(/encoder1/block/block.0/block.0.2/Constant_output_0 + ONNXTRT_Broadcast_16, /encoder1/block/block.0/block.0.2/Div), /encoder1/block/block.0/block.0.2/Erf), /encoder1/block/block.0/block.0.2/Constant_1_output_0 + ONNXTRT_Broadcast_18 + /encoder1/block/block.0/block.0.2/Add), /encoder1/block/block.0/block.0.2/Mul), /encoder1/block/block.0/block.0.2/Constant_2_output_0 + ONNXTRT_Broadcast_20 + /encoder1/block/block.0/block.0.2/Mul_1)",
      "LayerType": "CaskConvolution",
      "Inputs": [
        {
          "Name": "Reformatted Input Tensor 0 to encoder1.block.0.1.weight + /encoder1/block/block.0/block.0.1/weight_quantizer/QuantizeLinear + /encoder1/block/block.0/block.0.1/Conv + PWN(PWN(PWN(PWN(PWN(/encoder1/block/block.0/block.0.2/Constant_output_0 + ONNXTRT_Broadcast_16, /encoder1/block/block.0/block.0.2/Div), /encoder1/block/block.0/block.0.2/Erf), /encoder1/block/block.0/block.0.2/Constant_1_output_0 + ONNXTRT_Broadcast_18 + /encoder1/block/block.0/block.0.2/Add), /encoder1/block/block.0/block.0.2/Mul), /encoder1/block/block.0/block.0.2/Constant_2_output_0 + ONNXTRT_Broadcast_20 + /encoder1/block/block.0/block.0.2/Mul_1)",
          "Location": "Device",
          "Dimensions": [
            1,
            16,
            256,
            256
          ],
          "Format/Datatype": "Four wide channel vectorized row major Int8 format"
        }
      ],
      "Outputs": [
        {
          "Name": "/encoder1/block/block.0/block.0.2/Mul_1_output_0",
          "Location": "Device",
          "Dimensions": [
            1,
            64,
            256,
            256
          ],
          "Format/Datatype": "Row major linear FP32"
        }
      ],
      "ParameterType": "Convolution",
      "Kernel": [
        1,
        1
      ],
      "PaddingMode": "kEXPLICIT_ROUND_DOWN",
      "PrePadding": [
        0,
        0
      ],
      "PostPadding": [
        0,
        0
      ],
      "Stride": [
        1,
        1
      ],
      "Dilation": [
        1,
        1
      ],
      "OutMaps": 64,
      "Groups": 1,
      "Weights": {
        "Type": "Int8",
        "Count": 1024
      },
      "Bias": {
        "Type": "Float",
        "Count": 64
      },
      "HasBias": 1,
      "HasReLU": 0,
      "HasSparseWeights": 0,
      "HasDynamicFilter": 0,
      "HasDynamicBias": 0,
      "HasResidual": 0,
      "ConvXAsActInputIdx": -1,
      "BiasAsActInputIdx": -1,
      "ResAsActInputIdx": -1,
      "Activation": "GENERIC",
      "ParameterSubType": "PointWiseExpression",
      "NbPointWiseExpressionInputArgs": 1,
      "PointWiseExpressionInputArgs": [
        "arg0"
      ],
      "NbPointWiseExpressionOutputVars": 1,
      "PointWiseExpressionOutputVars": [
        "var4"
      ],
      "NbPointWiseExpressionParams": 0,
      "PointWiseExpressionParams": [],
      "NbPointWiseExpressionLiterals": 5,
      "PointWiseExpressionLiterals": [
        "1.414214e+00f",
        "0.000000e+00f",
        "1.000000e+00f",
        "0.000000e+00f",
        "5.000000e-01f"
      ],
      "NbPointWiseExpressionOperations": 5,
      "PointWiseExpressionOperations": [
        "auto const var0 = pwgen::iDiv(arg0, literal0);",
        "auto const var1 = pwgen::iErf(var0);",
        "auto const var2 = pwgen::iPlus(var1, literal2);",
        "auto const var3 = pwgen::iMul(arg0, var2);",
        "auto const var4 = pwgen::iMul(var3, literal4);"
      ],
      "TacticName": "volta_fp32_icudnn_int8x4_128x32_relu_interior_nn_v1",
      "TacticValue": "0xc9c0872569525a26",
      "StreamId": 0,
      "Metadata": "[ONNX Layer: /encoder1/block/block.0/block.0.1/weight_quantizer/QuantizeLinear]\u001e[ONNX Layer: /encoder1/block/block.0/block.0.1/Conv]\u001e[ONNX Layer: /encoder1/block/block.0/block.0.2/Div]\u001e[ONNX Layer: /encoder1/block/block.0/block.0.2/Erf]\u001e[ONNX Layer: /encoder1/block/block.0/block.0.2/Add]\u001e[ONNX Layer: /encoder1/block/block.0/block.0.2/Mul]\u001e[ONNX Layer: /encoder1/block/block.0/block.0.2/Mul_1]\u001e[ONNX Layer: /encoder1/block/block.0/block.0.1/input_quantizer/DequantizeLinear]\u001e[ONNX Layer: /encoder1/block/block.0/block.0.1/weight_quantizer/DequantizeLinear]"
    },
    {
      "Name": "/encoder1/block/block.0/block.0.3/BatchNormalization",
      "LayerType": "Scale",
      "Inputs": [
        {
          "Name": "/encoder1/block/block.0/block.0.2/Mul_1_output_0",
          "Location": "Device",
          "Dimensions": [
            1,
            64,
            256,
            256
          ],
          "Format/Datatype": "Row major linear FP32"
        }
      ],
      "Outputs": [
        {
          "Name": "/encoder1/block/block.0/block.0.3/BatchNormalization_output_0",
          "Location": "Device",
          "Dimensions": [
            1,
            64,
            256,
            256
          ],
          "Format/Datatype": "Row major linear FP32"
        }
      ],
      "ParameterType": "Scale",
      "Mode": "CHANNEL",
      "Shift": {
        "Type": "Float",
        "Count": 64
      },
      "Scale": {
        "Type": "Float",
        "Count": 64
      },
      "Power": {
        "Type": "Float",
        "Count": 0
      },
      "Activation": "NONE",
      "ChannelAxis": 1,
      "TacticValue": "0x0000000000000000",
      "StreamId": 0,
      "Metadata": "[ONNX Layer: /encoder1/block/block.0/block.0.3/BatchNormalization]"
    },
    {
      "Name": "/encoder1/block/block.0/block.0.4/input_quantizer/QuantizeLinear",
      "LayerType": "Reformat",
      "Inputs": [
        {
          "Name": "/encoder1/block/block.0/block.0.3/BatchNormalization_output_0",
          "Location": "Device",
          "Dimensions": [
            1,
            64,
            256,
            256
          ],
          "Format/Datatype": "Row major linear FP32"
        }
      ],
      "Outputs": [
        {
          "Name": "/encoder1/block/block.0/block.0.4/input_quantizer/QuantizeLinear_output_0",
          "Location": "Device",
          "Dimensions": [
            1,
            64,
            256,
            256
          ],
          "Format/Datatype": "Four wide channel vectorized row major Int8 format"
        }
      ],
      "ParameterType": "Reformat",
      "Origin": "QDQ",
      "TacticValue": "0x0000000000000000",
      "StreamId": 0,
      "Metadata": "[ONNX Layer: /encoder1/block/block.0/block.0.4/input_quantizer/QuantizeLinear]"
    },
    {
      "Name": "encoder1.block.0.4.weight + /encoder1/block/block.0/block.0.4/weight_quantizer/QuantizeLinear + /encoder1/block/block.0/block.0.4/Conv + PWN(PWN(PWN(PWN(PWN(/encoder1/block/block.0/block.0.5/Constant_output_0 + ONNXTRT_Broadcast_26, /encoder1/block/block.0/block.0.5/Div), /encoder1/block/block.0/block.0.5/Erf), /encoder1/block/block.0/block.0.5/Constant_1_output_0 + ONNXTRT_Broadcast_28 + /encoder1/block/block.0/block.0.5/Add), /encoder1/block/block.0/block.0.5/Mul), /encoder1/block/block.0/block.0.5/Constant_2_output_0 + ONNXTRT_Broadcast_30 + /encoder1/block/block.0/block.0.5/Mul_1)",
      "LayerType": "CaskConvolution",
      "Inputs": [
        {
          "Name": "/encoder1/block/block.0/block.0.4/input_quantizer/QuantizeLinear_output_0",
          "Location": "Device",
          "Dimensions": [
            1,
            64,
            256,
            256
          ],
          "Format/Datatype": "Four wide channel vectorized row major Int8 format"
        }
      ],
      "Outputs": [
        {
          "Name": "/encoder1/block/block.0/block.0.5/Mul_1_output_0",
          "Location": "Device",
          "Dimensions": [
            1,
            16,
            256,
            256
          ],
          "Format/Datatype": "Row major linear FP32"
        }
      ],
      "ParameterType": "Convolution",
      "Kernel": [
        1,
        1
      ],
      "PaddingMode": "kEXPLICIT_ROUND_DOWN",
      "PrePadding": [
        0,
        0
      ],
      "PostPadding": [
        0,
        0
      ],
      "Stride": [
        1,
        1
      ],
      "Dilation": [
        1,
        1
      ],
      "OutMaps": 16,
      "Groups": 1,
      "Weights": {
        "Type": "Int8",
        "Count": 1024
      },
      "Bias": {
        "Type": "Float",
        "Count": 16
      },
      "HasBias": 1,
      "HasReLU": 0,
      "HasSparseWeights": 0,
      "HasDynamicFilter": 0,
      "HasDynamicBias": 0,
      "HasResidual": 0,
      "ConvXAsActInputIdx": -1,
      "BiasAsActInputIdx": -1,
      "ResAsActInputIdx": -1,
      "Activation": "GENERIC",
      "ParameterSubType": "PointWiseExpression",
      "NbPointWiseExpressionInputArgs": 1,
      "PointWiseExpressionInputArgs": [
        "arg0"
      ],
      "NbPointWiseExpressionOutputVars": 1,
      "PointWiseExpressionOutputVars": [
        "var4"
      ],
      "NbPointWiseExpressionParams": 0,
      "PointWiseExpressionParams": [],
      "NbPointWiseExpressionLiterals": 5,
      "PointWiseExpressionLiterals": [
        "1.414214e+00f",
        "0.000000e+00f",
        "1.000000e+00f",
        "0.000000e+00f",
        "5.000000e-01f"
      ],
      "NbPointWiseExpressionOperations": 5,
      "PointWiseExpressionOperations": [
        "auto const var0 = pwgen::iDiv(arg0, literal0);",
        "auto const var1 = pwgen::iErf(var0);",
        "auto const var2 = pwgen::iPlus(var1, literal2);",
        "auto const var3 = pwgen::iMul(arg0, var2);",
        "auto const var4 = pwgen::iMul(var3, literal4);"
      ],
      "TacticName": "volta_fp32_icudnn_int8x4_128x32_relu_small_nn_v1",
      "TacticValue": "0x170705f9b2fc8d53",
      "StreamId": 0,
      "Metadata": "[ONNX Layer: /encoder1/block/block.0/block.0.4/weight_quantizer/QuantizeLinear]\u001e[ONNX Layer: /encoder1/block/block.0/block.0.4/Conv]\u001e[ONNX Layer: /encoder1/block/block.0/block.0.5/Div]\u001e[ONNX Layer: /encoder1/block/block.0/block.0.5/Erf]\u001e[ONNX Layer: /encoder1/block/block.0/block.0.5/Add]\u001e[ONNX Layer: /encoder1/block/block.0/block.0.5/Mul]\u001e[ONNX Layer: /encoder1/block/block.0/block.0.5/Mul_1]\u001e[ONNX Layer: /encoder1/block/block.0/block.0.4/input_quantizer/DequantizeLinear]\u001e[ONNX Layer: /encoder1/block/block.0/block.0.4/weight_quantizer/DequantizeLinear]"
    },
    {
      "Name": "/encoder1/block/block.0/block.0.6/BatchNormalization",
      "LayerType": "Scale",
      "Inputs": [
        {
          "Name": "/encoder1/block/block.0/block.0.5/Mul_1_output_0",
          "Location": "Device",
          "Dimensions": [
            1,
            16,
            256,
            256
          ],
          "Format/Datatype": "Row major linear FP32"
        }
      ],
      "Outputs": [
        {
          "Name": "/encoder1/block/block.0/block.0.6/BatchNormalization_output_0",
          "Location": "Device",
          "Dimensions": [
            1,
            16,
            256,
            256
          ],
          "Format/Datatype": "Row major linear FP32"
        }
      ],
      "ParameterType": "Scale",
      "Mode": "CHANNEL",
      "Shift": {
        "Type": "Float",
        "Count": 16
      },
      "Scale": {
        "Type": "Float",
        "Count": 16
      },
      "Power": {
        "Type": "Float",
        "Count": 0
      },
      "Activation": "NONE",
      "ChannelAxis": 1,
      "TacticValue": "0x0000000000000000",
      "StreamId": 0,
      "Metadata": "[ONNX Layer: /encoder1/block/block.0/block.0.6/BatchNormalization]"
    },
    {
      "Name": "/encoder1/up/conv/conv.0/input_quantizer/QuantizeLinear",
      "LayerType": "Reformat",
      "Inputs": [
        {
          "Name": "/encoder1/block/block.0/block.0.6/BatchNormalization_output_0",
          "Location": "Device",
          "Dimensions": [
            1,
            16,
            256,
            256
          ],
          "Format/Datatype": "Row major linear FP32"
        }
      ],
      "Outputs": [
        {
          "Name": "/encoder1/up/conv/conv.0/input_quantizer/QuantizeLinear_output_0",
          "Location": "Device",
          "Dimensions": [
            1,
            16,
            256,
            256
          ],
          "Format/Datatype": "Four wide channel vectorized row major Int8 format"
        }
      ],
      "ParameterType": "Reformat",
      "Origin": "QDQ",
      "TacticValue": "0x0000000000000000",
      "StreamId": 0,
      "Metadata": "[ONNX Layer: /encoder1/up/conv/conv.0/input_quantizer/QuantizeLinear]"
    },
    {
      "Name": "encoder1.up.conv.0.weight + /encoder1/up/conv/conv.0/weight_quantizer/QuantizeLinear + /encoder1/up/conv/conv.0/Conv",
      "LayerType": "CaskConvolution",
      "Inputs": [
        {
          "Name": "/encoder1/up/conv/conv.0/input_quantizer/QuantizeLinear_output_0",
          "Location": "Device",
          "Dimensions": [
            1,
            16,
            256,
            256
          ],
          "Format/Datatype": "Four wide channel vectorized row major Int8 format"
        }
      ],
      "Outputs": [
        {
          "Name": "/Up_conv2/conv/conv.0/input_quantizer/QuantizeLinear_output_0",
          "Location": "Device",
          "Dimensions": [
            1,
            16,
            256,
            256
          ],
          "Format/Datatype": "Four wide channel vectorized row major Int8 format"
        }
      ],
      "ParameterType": "Convolution",
      "Kernel": [
        3,
        3
      ],
      "PaddingMode": "kEXPLICIT_ROUND_DOWN",
      "PrePadding": [
        1,
        1
      ],
      "PostPadding": [
        1,
        1
      ],
      "Stride": [
        1,
        1
      ],
      "Dilation": [
        1,
        1
      ],
      "OutMaps": 16,
      "Groups": 1,
      "Weights": {
        "Type": "Int8",
        "Count": 2304
      },
      "Bias": {
        "Type": "Float",
        "Count": 16
      },
      "HasBias": 1,
      "HasReLU": 1,
      "HasSparseWeights": 0,
      "HasDynamicFilter": 0,
      "HasDynamicBias": 0,
      "HasResidual": 0,
      "ConvXAsActInputIdx": -1,
      "BiasAsActInputIdx": -1,
      "ResAsActInputIdx": -1,
      "Activation": "RELU",
      "TacticName": "volta_int8x4_icudnn_int8x4_128x32_relu_small_nn_v1",
      "TacticValue": "0xa8d133a63883409f",
      "StreamId": 0,
      "Metadata": "[ONNX Layer: /encoder1/up/conv/conv.0/weight_quantizer/QuantizeLinear]\u001e[ONNX Layer: /encoder1/up/conv/conv.0/Conv]\u001e[ONNX Layer: /encoder1/up/conv/conv.1/BatchNormalization]\u001e[ONNX Layer: /encoder1/up/conv/conv.2/Relu]\u001e[ONNX Layer: /Maxpool/input_quantizer/QuantizeLinear]\u001e[ONNX Layer: /Up_conv2/conv/conv.0/input_quantizer/QuantizeLinear]\u001e[ONNX Layer: /encoder1/up/conv/conv.0/input_quantizer/DequantizeLinear]\u001e[ONNX Layer: /encoder1/up/conv/conv.0/weight_quantizer/DequantizeLinear]"
    },
    {
      "Name": "/Maxpool/MaxPool",
      "LayerType": "CaskPooling",
      "Inputs": [
        {
          "Name": "/Up_conv2/conv/conv.0/input_quantizer/QuantizeLinear_output_0",
          "Location": "Device",
          "Dimensions": [
            1,
            16,
            256,
            256
          ],
          "Format/Datatype": "Four wide channel vectorized row major Int8 format"
        }
      ],
      "Outputs": [
        {
          "Name": "/encoder2/block/block.0/block.0.0/fn/fn.0/input_quantizer/QuantizeLinear_output_0",
          "Location": "Device",
          "Dimensions": [
            1,
            16,
            128,
            128
          ],
          "Format/Datatype": "Four wide channel vectorized row major Int8 format"
        }
      ],
      "ParameterType": "Pooling",
      "PoolingType": "MAX",
      "WindowSize": [
        2,
        2
      ],
      "PaddingMode": "kEXPLICIT_ROUND_DOWN",
      "PrePadding": [
        0,
        0
      ],
      "PostPadding": [
        0,
        0
      ],
      "Stride": [
        2,
        2
      ],
      "BlendFactor": 0,
      "AverageCountExcludesPadding": 1,
      "TacticName": "sm50_xmma_pooling_CHWPacked_NCxHW4_kMAX",
      "TacticValue": "0x1f6c40e3e09ec730",
      "StreamId": 0,
      "Metadata": "[ONNX Layer: /Maxpool/MaxPool]"
    },
    {
      "Name": "/Maxpool/input_quantizer/DequantizeLinear_clone_1",
      "LayerType": "Reformat",
      "Inputs": [
        {
          "Name": "/encoder2/block/block.0/block.0.0/fn/fn.0/input_quantizer/QuantizeLinear_output_0",
          "Location": "Device",
          "Dimensions": [
            1,
            16,
            128,
            128
          ],
          "Format/Datatype": "Four wide channel vectorized row major Int8 format"
        }
      ],
      "Outputs": [
        {
          "Name": "/Maxpool/MaxPool_output_0_clone_1",
          "Location": "Device",
          "Dimensions": [
            1,
            16,
            128,
            128
          ],
          "Format/Datatype": "Row major linear FP32"
        }
      ],
      "ParameterType": "Reformat",
      "Origin": "QDQ",
      "TacticValue": "0x0000000000000000",
      "StreamId": 0,
      "Metadata": "[ONNX Layer: /Maxpool/input_quantizer/DequantizeLinear]"
    },
    {
      "Name": "encoder2.block.0.0.fn.0.weight + /encoder2/block/block.0/block.0.0/fn/fn.0/weight_quantizer/QuantizeLinear + /encoder2/block/block.0/block.0.0/fn/fn.0/Conv",
      "LayerType": "CaskConvolution",
      "Inputs": [
        {
          "Name": "/encoder2/block/block.0/block.0.0/fn/fn.0/input_quantizer/QuantizeLinear_output_0",
          "Location": "Device",
          "Dimensions": [
            1,
            16,
            128,
            128
          ],
          "Format/Datatype": "Four wide channel vectorized row major Int8 format"
        }
      ],
      "Outputs": [
        {
          "Name": "/encoder2/block/block.0/block.0.0/fn/fn.0/Conv_output_0",
          "Location": "Device",
          "Dimensions": [
            1,
            16,
            128,
            128
          ],
          "Format/Datatype": "Row major linear FP32"
        }
      ],
      "ParameterType": "Convolution",
      "Kernel": [
        3,
        3
      ],
      "PaddingMode": "kEXPLICIT_ROUND_DOWN",
      "PrePadding": [
        1,
        1
      ],
      "PostPadding": [
        1,
        1
      ],
      "Stride": [
        1,
        1
      ],
      "Dilation": [
        1,
        1
      ],
      "OutMaps": 16,
      "Groups": 16,
      "Weights": {
        "Type": "Int8",
        "Count": 144
      },
      "Bias": {
        "Type": "Float",
        "Count": 16
      },
      "HasBias": 1,
      "HasReLU": 0,
      "HasSparseWeights": 0,
      "HasDynamicFilter": 0,
      "HasDynamicBias": 0,
      "HasResidual": 0,
      "ConvXAsActInputIdx": -1,
      "BiasAsActInputIdx": -1,
      "ResAsActInputIdx": -1,
      "Activation": "NONE",
      "TacticName": "sm61_xmma_convolution_trt_depthwise_i8_conv_int8ncxhw4_fp32nchw_int8kcrs_R3_S3_U1_V1_spv4",
      "TacticValue": "0x8926a0b331eb960f",
      "StreamId": 0,
      "Metadata": "[ONNX Layer: /encoder2/block/block.0/block.0.0/fn/fn.0/weight_quantizer/QuantizeLinear]\u001e[ONNX Layer: /encoder2/block/block.0/block.0.0/fn/fn.0/Conv]\u001e[ONNX Layer: /encoder2/block/block.0/block.0.0/fn/fn.0/input_quantizer/DequantizeLinear]\u001e[ONNX Layer: /encoder2/block/block.0/block.0.0/fn/fn.0/weight_quantizer/DequantizeLinear]"
    },
    {
      "Name": "Reformatting CopyNode for Input Tensor 0 to PWN(PWN(PWN(PWN(PWN(/encoder2/block/block.0/block.0.0/fn/fn.1/Constant_output_0 + ONNXTRT_Broadcast_42, /encoder2/block/block.0/block.0.0/fn/fn.1/Div), /encoder2/block/block.0/block.0.0/fn/fn.1/Erf), /encoder2/block/block.0/block.0.0/fn/fn.1/Constant_1_output_0 + ONNXTRT_Broadcast_44 + /encoder2/block/block.0/block.0.0/fn/fn.1/Add), /encoder2/block/block.0/block.0.0/fn/fn.1/Mul), /encoder2/block/block.0/block.0.0/fn/fn.1/Constant_2_output_0 + ONNXTRT_Broadcast_46 + /encoder2/block/block.0/block.0.0/fn/fn.1/Mul_1)",
      "LayerType": "NoOp",
      "Inputs": [
        {
          "Name": "/encoder2/block/block.0/block.0.0/fn/fn.0/Conv_output_0",
          "Location": "Device",
          "Dimensions": [
            1,
            16,
            128,
            128
          ],
          "Format/Datatype": "Row major linear FP32"
        }
      ],
      "Outputs": [
        {
          "Name": "Reformatted Input Tensor 0 to PWN(PWN(PWN(PWN(PWN(/encoder2/block/block.0/block.0.0/fn/fn.1/Constant_output_0 + ONNXTRT_Broadcast_42, /encoder2/block/block.0/block.0.0/fn/fn.1/Div), /encoder2/block/block.0/block.0.0/fn/fn.1/Erf), /encoder2/block/block.0/block.0.0/fn/fn.1/Constant_1_output_0 + ONNXTRT_Broadcast_44 + /encoder2/block/block.0/block.0.0/fn/fn.1/Add), /encoder2/block/block.0/block.0.0/fn/fn.1/Mul), /encoder2/block/block.0/block.0.0/fn/fn.1/Constant_2_output_0 + ONNXTRT_Broadcast_46 + /encoder2/block/block.0/block.0.0/fn/fn.1/Mul_1)",
          "Location": "Device",
          "Dimensions": [
            1,
            16,
            128,
            128
          ],
          "Format/Datatype": "Row major linear FP32"
        }
      ],
      "TacticValue": "0x0000000000000000",
      "StreamId": 0,
      "Metadata": ""
    },
    {
      "Name": "PWN(PWN(PWN(PWN(PWN(/encoder2/block/block.0/block.0.0/fn/fn.1/Constant_output_0 + ONNXTRT_Broadcast_42, /encoder2/block/block.0/block.0.0/fn/fn.1/Div), /encoder2/block/block.0/block.0.0/fn/fn.1/Erf), /encoder2/block/block.0/block.0.0/fn/fn.1/Constant_1_output_0 + ONNXTRT_Broadcast_44 + /encoder2/block/block.0/block.0.0/fn/fn.1/Add), /encoder2/block/block.0/block.0.0/fn/fn.1/Mul), /encoder2/block/block.0/block.0.0/fn/fn.1/Constant_2_output_0 + ONNXTRT_Broadcast_46 + /encoder2/block/block.0/block.0.0/fn/fn.1/Mul_1)",
      "LayerType": "PointWiseV2",
      "Inputs": [
        {
          "Name": "Reformatted Input Tensor 0 to PWN(PWN(PWN(PWN(PWN(/encoder2/block/block.0/block.0.0/fn/fn.1/Constant_output_0 + ONNXTRT_Broadcast_42, /encoder2/block/block.0/block.0.0/fn/fn.1/Div), /encoder2/block/block.0/block.0.0/fn/fn.1/Erf), /encoder2/block/block.0/block.0.0/fn/fn.1/Constant_1_output_0 + ONNXTRT_Broadcast_44 + /encoder2/block/block.0/block.0.0/fn/fn.1/Add), /encoder2/block/block.0/block.0.0/fn/fn.1/Mul), /encoder2/block/block.0/block.0.0/fn/fn.1/Constant_2_output_0 + ONNXTRT_Broadcast_46 + /encoder2/block/block.0/block.0.0/fn/fn.1/Mul_1)",
          "Location": "Device",
          "Dimensions": [
            1,
            16,
            128,
            128
          ],
          "Format/Datatype": "Row major linear FP32"
        }
      ],
      "Outputs": [
        {
          "Name": "/encoder2/block/block.0/block.0.0/fn/fn.1/Mul_1_output_0",
          "Location": "Device",
          "Dimensions": [
            1,
            16,
            128,
            128
          ],
          "Format/Datatype": "Row major linear FP32"
        }
      ],
      "ParameterType": "PointWise",
      "ParameterSubType": "PointWiseExpression",
      "NbInputArgs": 1,
      "InputArgs": [
        "arg0"
      ],
      "NbOutputVars": 1,
      "OutputVars": [
        "var4"
      ],
      "NbParams": 0,
      "Params": [],
      "NbLiterals": 5,
      "Literals": [
        "1.414214e+00f",
        "0.000000e+00f",
        "1.000000e+00f",
        "0.000000e+00f",
        "5.000000e-01f"
      ],
      "NbOperations": 5,
      "Operations": [
        "auto const var0 = pwgen::iDiv(arg0, literal0);",
        "auto const var1 = pwgen::iErf(var0);",
        "auto const var2 = pwgen::iPlus(var1, literal2);",
        "auto const var3 = pwgen::iMul(arg0, var2);",
        "auto const var4 = pwgen::iMul(var3, literal4);"
      ],
      "TacticValue": "0x0000000000000005",
      "StreamId": 0,
      "Metadata": "[ONNX Layer: /encoder2/block/block.0/block.0.0/fn/fn.1/Div]\u001e[ONNX Layer: /encoder2/block/block.0/block.0.0/fn/fn.1/Erf]\u001e[ONNX Layer: /encoder2/block/block.0/block.0.0/fn/fn.1/Add]\u001e[ONNX Layer: /encoder2/block/block.0/block.0.0/fn/fn.1/Mul]\u001e[ONNX Layer: /encoder2/block/block.0/block.0.0/fn/fn.1/Mul_1]"
    },
    {
      "Name": "Reformatting CopyNode for Input Tensor 0 to /encoder2/block/block.0/block.0.0/fn/fn.2/BatchNormalization",
      "LayerType": "NoOp",
      "Inputs": [
        {
          "Name": "/encoder2/block/block.0/block.0.0/fn/fn.1/Mul_1_output_0",
          "Location": "Device",
          "Dimensions": [
            1,
            16,
            128,
            128
          ],
          "Format/Datatype": "Row major linear FP32"
        }
      ],
      "Outputs": [
        {
          "Name": "Reformatted Input Tensor 0 to /encoder2/block/block.0/block.0.0/fn/fn.2/BatchNormalization",
          "Location": "Device",
          "Dimensions": [
            1,
            16,
            128,
            128
          ],
          "Format/Datatype": "Row major linear FP32"
        }
      ],
      "TacticValue": "0x0000000000000000",
      "StreamId": 0,
      "Metadata": ""
    },
    {
      "Name": "/encoder2/block/block.0/block.0.0/fn/fn.2/BatchNormalization",
      "LayerType": "Scale",
      "Inputs": [
        {
          "Name": "Reformatted Input Tensor 0 to /encoder2/block/block.0/block.0.0/fn/fn.2/BatchNormalization",
          "Location": "Device",
          "Dimensions": [
            1,
            16,
            128,
            128
          ],
          "Format/Datatype": "Row major linear FP32"
        }
      ],
      "Outputs": [
        {
          "Name": "/encoder2/block/block.0/block.0.0/fn/fn.2/BatchNormalization_output_0",
          "Location": "Device",
          "Dimensions": [
            1,
            16,
            128,
            128
          ],
          "Format/Datatype": "Row major linear FP32"
        }
      ],
      "ParameterType": "Scale",
      "Mode": "CHANNEL",
      "Shift": {
        "Type": "Float",
        "Count": 16
      },
      "Scale": {
        "Type": "Float",
        "Count": 16
      },
      "Power": {
        "Type": "Float",
        "Count": 0
      },
      "Activation": "NONE",
      "ChannelAxis": 1,
      "TacticValue": "0x0000000000000000",
      "StreamId": 0,
      "Metadata": "[ONNX Layer: /encoder2/block/block.0/block.0.0/fn/fn.2/BatchNormalization]"
    },
    {
      "Name": "PWN(/encoder2/block/block.0/block.0.0/Add)",
      "LayerType": "PointWiseV2",
      "Inputs": [
        {
          "Name": "/encoder2/block/block.0/block.0.0/fn/fn.2/BatchNormalization_output_0",
          "Location": "Device",
          "Dimensions": [
            1,
            16,
            128,
            128
          ],
          "Format/Datatype": "Row major linear FP32"
        },
        {
          "Name": "/Maxpool/MaxPool_output_0_clone_1",
          "Location": "Device",
          "Dimensions": [
            1,
            16,
            128,
            128
          ],
          "Format/Datatype": "Row major linear FP32"
        }
      ],
      "Outputs": [
        {
          "Name": "/encoder2/block/block.0/block.0.1/input_quantizer/QuantizeLinear_output_0",
          "Location": "Device",
          "Dimensions": [
            1,
            16,
            128,
            128
          ],
          "Format/Datatype": "Row major Int8 format"
        }
      ],
      "ParameterType": "PointWise",
      "ParameterSubType": "PointWiseExpression",
      "NbInputArgs": 2,
      "InputArgs": [
        "arg0",
        "arg1"
      ],
      "NbOutputVars": 1,
      "OutputVars": [
        "var0"
      ],
      "NbParams": 0,
      "Params": [],
      "NbLiterals": 0,
      "Literals": [],
      "NbOperations": 1,
      "Operations": [
        "auto const var0 = pwgen::iPlus(arg0, arg1);"
      ],
      "TacticValue": "0x0000000000000009",
      "StreamId": 0,
      "Metadata": "[ONNX Layer: /encoder2/block/block.0/block.0.0/Add]\u001e[ONNX Layer: /encoder2/block/block.0/block.0.1/input_quantizer/QuantizeLinear]"
    },
    {
      "Name": "Reformatting CopyNode for Input Tensor 0 to encoder2.block.0.1.weight + /encoder2/block/block.0/block.0.1/weight_quantizer/QuantizeLinear + /encoder2/block/block.0/block.0.1/Conv + PWN(PWN(PWN(PWN(PWN(/encoder2/block/block.0/block.0.2/Constant_output_0 + ONNXTRT_Broadcast_52, /encoder2/block/block.0/block.0.2/Div), /encoder2/block/block.0/block.0.2/Erf), /encoder2/block/block.0/block.0.2/Constant_1_output_0 + ONNXTRT_Broadcast_54 + /encoder2/block/block.0/block.0.2/Add), /encoder2/block/block.0/block.0.2/Mul), /encoder2/block/block.0/block.0.2/Constant_2_output_0 + ONNXTRT_Broadcast_56 + /encoder2/block/block.0/block.0.2/Mul_1)",
      "LayerType": "Reformat",
      "Inputs": [
        {
          "Name": "/encoder2/block/block.0/block.0.1/input_quantizer/QuantizeLinear_output_0",
          "Location": "Device",
          "Dimensions": [
            1,
            16,
            128,
            128
          ],
          "Format/Datatype": "Row major Int8 format"
        }
      ],
      "Outputs": [
        {
          "Name": "Reformatted Input Tensor 0 to encoder2.block.0.1.weight + /encoder2/block/block.0/block.0.1/weight_quantizer/QuantizeLinear + /encoder2/block/block.0/block.0.1/Conv + PWN(PWN(PWN(PWN(PWN(/encoder2/block/block.0/block.0.2/Constant_output_0 + ONNXTRT_Broadcast_52, /encoder2/block/block.0/block.0.2/Div), /encoder2/block/block.0/block.0.2/Erf), /encoder2/block/block.0/block.0.2/Constant_1_output_0 + ONNXTRT_Broadcast_54 + /encoder2/block/block.0/block.0.2/Add), /encoder2/block/block.0/block.0.2/Mul), /encoder2/block/block.0/block.0.2/Constant_2_output_0 + ONNXTRT_Broadcast_56 + /encoder2/block/block.0/block.0.2/Mul_1)",
          "Location": "Device",
          "Dimensions": [
            1,
            16,
            128,
            128
          ],
          "Format/Datatype": "Four wide channel vectorized row major Int8 format"
        }
      ],
      "ParameterType": "Reformat",
      "Origin": "REFORMAT",
      "TacticValue": "0x0000000000000000",
      "StreamId": 0,
      "Metadata": ""
    },
    {
      "Name": "encoder2.block.0.1.weight + /encoder2/block/block.0/block.0.1/weight_quantizer/QuantizeLinear + /encoder2/block/block.0/block.0.1/Conv + PWN(PWN(PWN(PWN(PWN(/encoder2/block/block.0/block.0.2/Constant_output_0 + ONNXTRT_Broadcast_52, /encoder2/block/block.0/block.0.2/Div), /encoder2/block/block.0/block.0.2/Erf), /encoder2/block/block.0/block.0.2/Constant_1_output_0 + ONNXTRT_Broadcast_54 + /encoder2/block/block.0/block.0.2/Add), /encoder2/block/block.0/block.0.2/Mul), /encoder2/block/block.0/block.0.2/Constant_2_output_0 + ONNXTRT_Broadcast_56 + /encoder2/block/block.0/block.0.2/Mul_1)",
      "LayerType": "CaskConvolution",
      "Inputs": [
        {
          "Name": "Reformatted Input Tensor 0 to encoder2.block.0.1.weight + /encoder2/block/block.0/block.0.1/weight_quantizer/QuantizeLinear + /encoder2/block/block.0/block.0.1/Conv + PWN(PWN(PWN(PWN(PWN(/encoder2/block/block.0/block.0.2/Constant_output_0 + ONNXTRT_Broadcast_52, /encoder2/block/block.0/block.0.2/Div), /encoder2/block/block.0/block.0.2/Erf), /encoder2/block/block.0/block.0.2/Constant_1_output_0 + ONNXTRT_Broadcast_54 + /encoder2/block/block.0/block.0.2/Add), /encoder2/block/block.0/block.0.2/Mul), /encoder2/block/block.0/block.0.2/Constant_2_output_0 + ONNXTRT_Broadcast_56 + /encoder2/block/block.0/block.0.2/Mul_1)",
          "Location": "Device",
          "Dimensions": [
            1,
            16,
            128,
            128
          ],
          "Format/Datatype": "Four wide channel vectorized row major Int8 format"
        }
      ],
      "Outputs": [
        {
          "Name": "/encoder2/block/block.0/block.0.2/Mul_1_output_0",
          "Location": "Device",
          "Dimensions": [
            1,
            64,
            128,
            128
          ],
          "Format/Datatype": "Row major linear FP32"
        }
      ],
      "ParameterType": "Convolution",
      "Kernel": [
        1,
        1
      ],
      "PaddingMode": "kEXPLICIT_ROUND_DOWN",
      "PrePadding": [
        0,
        0
      ],
      "PostPadding": [
        0,
        0
      ],
      "Stride": [
        1,
        1
      ],
      "Dilation": [
        1,
        1
      ],
      "OutMaps": 64,
      "Groups": 1,
      "Weights": {
        "Type": "Int8",
        "Count": 1024
      },
      "Bias": {
        "Type": "Float",
        "Count": 64
      },
      "HasBias": 1,
      "HasReLU": 0,
      "HasSparseWeights": 0,
      "HasDynamicFilter": 0,
      "HasDynamicBias": 0,
      "HasResidual": 0,
      "ConvXAsActInputIdx": -1,
      "BiasAsActInputIdx": -1,
      "ResAsActInputIdx": -1,
      "Activation": "GENERIC",
      "ParameterSubType": "PointWiseExpression",
      "NbPointWiseExpressionInputArgs": 1,
      "PointWiseExpressionInputArgs": [
        "arg0"
      ],
      "NbPointWiseExpressionOutputVars": 1,
      "PointWiseExpressionOutputVars": [
        "var4"
      ],
      "NbPointWiseExpressionParams": 0,
      "PointWiseExpressionParams": [],
      "NbPointWiseExpressionLiterals": 5,
      "PointWiseExpressionLiterals": [
        "1.414214e+00f",
        "0.000000e+00f",
        "1.000000e+00f",
        "0.000000e+00f",
        "5.000000e-01f"
      ],
      "NbPointWiseExpressionOperations": 5,
      "PointWiseExpressionOperations": [
        "auto const var0 = pwgen::iDiv(arg0, literal0);",
        "auto const var1 = pwgen::iErf(var0);",
        "auto const var2 = pwgen::iPlus(var1, literal2);",
        "auto const var3 = pwgen::iMul(arg0, var2);",
        "auto const var4 = pwgen::iMul(var3, literal4);"
      ],
      "TacticName": "volta_fp32_icudnn_int8x4_128x32_relu_xregs_small_nn_v1",
      "TacticValue": "0x2d769bf5f9017100",
      "StreamId": 0,
      "Metadata": "[ONNX Layer: /encoder2/block/block.0/block.0.1/weight_quantizer/QuantizeLinear]\u001e[ONNX Layer: /encoder2/block/block.0/block.0.1/Conv]\u001e[ONNX Layer: /encoder2/block/block.0/block.0.2/Div]\u001e[ONNX Layer: /encoder2/block/block.0/block.0.2/Erf]\u001e[ONNX Layer: /encoder2/block/block.0/block.0.2/Add]\u001e[ONNX Layer: /encoder2/block/block.0/block.0.2/Mul]\u001e[ONNX Layer: /encoder2/block/block.0/block.0.2/Mul_1]\u001e[ONNX Layer: /encoder2/block/block.0/block.0.1/input_quantizer/DequantizeLinear]\u001e[ONNX Layer: /encoder2/block/block.0/block.0.1/weight_quantizer/DequantizeLinear]"
    },
    {
      "Name": "/encoder2/block/block.0/block.0.3/BatchNormalization",
      "LayerType": "Scale",
      "Inputs": [
        {
          "Name": "/encoder2/block/block.0/block.0.2/Mul_1_output_0",
          "Location": "Device",
          "Dimensions": [
            1,
            64,
            128,
            128
          ],
          "Format/Datatype": "Row major linear FP32"
        }
      ],
      "Outputs": [
        {
          "Name": "/encoder2/block/block.0/block.0.3/BatchNormalization_output_0",
          "Location": "Device",
          "Dimensions": [
            1,
            64,
            128,
            128
          ],
          "Format/Datatype": "Row major linear FP32"
        }
      ],
      "ParameterType": "Scale",
      "Mode": "CHANNEL",
      "Shift": {
        "Type": "Float",
        "Count": 64
      },
      "Scale": {
        "Type": "Float",
        "Count": 64
      },
      "Power": {
        "Type": "Float",
        "Count": 0
      },
      "Activation": "NONE",
      "ChannelAxis": 1,
      "TacticValue": "0x0000000000000000",
      "StreamId": 0,
      "Metadata": "[ONNX Layer: /encoder2/block/block.0/block.0.3/BatchNormalization]"
    },
    {
      "Name": "/encoder2/block/block.0/block.0.4/input_quantizer/QuantizeLinear",
      "LayerType": "Reformat",
      "Inputs": [
        {
          "Name": "/encoder2/block/block.0/block.0.3/BatchNormalization_output_0",
          "Location": "Device",
          "Dimensions": [
            1,
            64,
            128,
            128
          ],
          "Format/Datatype": "Row major linear FP32"
        }
      ],
      "Outputs": [
        {
          "Name": "/encoder2/block/block.0/block.0.4/input_quantizer/QuantizeLinear_output_0",
          "Location": "Device",
          "Dimensions": [
            1,
            64,
            128,
            128
          ],
          "Format/Datatype": "Four wide channel vectorized row major Int8 format"
        }
      ],
      "ParameterType": "Reformat",
      "Origin": "QDQ",
      "TacticValue": "0x0000000000000000",
      "StreamId": 0,
      "Metadata": "[ONNX Layer: /encoder2/block/block.0/block.0.4/input_quantizer/QuantizeLinear]"
    },
    {
      "Name": "encoder2.block.0.4.weight + /encoder2/block/block.0/block.0.4/weight_quantizer/QuantizeLinear + /encoder2/block/block.0/block.0.4/Conv + PWN(PWN(PWN(PWN(PWN(/encoder2/block/block.0/block.0.5/Constant_output_0 + ONNXTRT_Broadcast_62, /encoder2/block/block.0/block.0.5/Div), /encoder2/block/block.0/block.0.5/Erf), /encoder2/block/block.0/block.0.5/Constant_1_output_0 + ONNXTRT_Broadcast_64 + /encoder2/block/block.0/block.0.5/Add), /encoder2/block/block.0/block.0.5/Mul), /encoder2/block/block.0/block.0.5/Constant_2_output_0 + ONNXTRT_Broadcast_66 + /encoder2/block/block.0/block.0.5/Mul_1)",
      "LayerType": "CaskConvolution",
      "Inputs": [
        {
          "Name": "/encoder2/block/block.0/block.0.4/input_quantizer/QuantizeLinear_output_0",
          "Location": "Device",
          "Dimensions": [
            1,
            64,
            128,
            128
          ],
          "Format/Datatype": "Four wide channel vectorized row major Int8 format"
        }
      ],
      "Outputs": [
        {
          "Name": "/encoder2/block/block.0/block.0.5/Mul_1_output_0",
          "Location": "Device",
          "Dimensions": [
            1,
            16,
            128,
            128
          ],
          "Format/Datatype": "Row major linear FP32"
        }
      ],
      "ParameterType": "Convolution",
      "Kernel": [
        1,
        1
      ],
      "PaddingMode": "kEXPLICIT_ROUND_DOWN",
      "PrePadding": [
        0,
        0
      ],
      "PostPadding": [
        0,
        0
      ],
      "Stride": [
        1,
        1
      ],
      "Dilation": [
        1,
        1
      ],
      "OutMaps": 16,
      "Groups": 1,
      "Weights": {
        "Type": "Int8",
        "Count": 1024
      },
      "Bias": {
        "Type": "Float",
        "Count": 16
      },
      "HasBias": 1,
      "HasReLU": 0,
      "HasSparseWeights": 0,
      "HasDynamicFilter": 0,
      "HasDynamicBias": 0,
      "HasResidual": 0,
      "ConvXAsActInputIdx": -1,
      "BiasAsActInputIdx": -1,
      "ResAsActInputIdx": -1,
      "Activation": "GENERIC",
      "ParameterSubType": "PointWiseExpression",
      "NbPointWiseExpressionInputArgs": 1,
      "PointWiseExpressionInputArgs": [
        "arg0"
      ],
      "NbPointWiseExpressionOutputVars": 1,
      "PointWiseExpressionOutputVars": [
        "var4"
      ],
      "NbPointWiseExpressionParams": 0,
      "PointWiseExpressionParams": [],
      "NbPointWiseExpressionLiterals": 5,
      "PointWiseExpressionLiterals": [
        "1.414214e+00f",
        "0.000000e+00f",
        "1.000000e+00f",
        "0.000000e+00f",
        "5.000000e-01f"
      ],
      "NbPointWiseExpressionOperations": 5,
      "PointWiseExpressionOperations": [
        "auto const var0 = pwgen::iDiv(arg0, literal0);",
        "auto const var1 = pwgen::iErf(var0);",
        "auto const var2 = pwgen::iPlus(var1, literal2);",
        "auto const var3 = pwgen::iMul(arg0, var2);",
        "auto const var4 = pwgen::iMul(var3, literal4);"
      ],
      "TacticName": "volta_fp32_icudnn_int8x4_128x32_relu_interior_nn_v1",
      "TacticValue": "0xc9c0872569525a26",
      "StreamId": 0,
      "Metadata": "[ONNX Layer: /encoder2/block/block.0/block.0.4/weight_quantizer/QuantizeLinear]\u001e[ONNX Layer: /encoder2/block/block.0/block.0.4/Conv]\u001e[ONNX Layer: /encoder2/block/block.0/block.0.5/Div]\u001e[ONNX Layer: /encoder2/block/block.0/block.0.5/Erf]\u001e[ONNX Layer: /encoder2/block/block.0/block.0.5/Add]\u001e[ONNX Layer: /encoder2/block/block.0/block.0.5/Mul]\u001e[ONNX Layer: /encoder2/block/block.0/block.0.5/Mul_1]\u001e[ONNX Layer: /encoder2/block/block.0/block.0.4/input_quantizer/DequantizeLinear]\u001e[ONNX Layer: /encoder2/block/block.0/block.0.4/weight_quantizer/DequantizeLinear]"
    },
    {
      "Name": "/encoder2/block/block.0/block.0.6/BatchNormalization",
      "LayerType": "Scale",
      "Inputs": [
        {
          "Name": "/encoder2/block/block.0/block.0.5/Mul_1_output_0",
          "Location": "Device",
          "Dimensions": [
            1,
            16,
            128,
            128
          ],
          "Format/Datatype": "Row major linear FP32"
        }
      ],
      "Outputs": [
        {
          "Name": "/encoder2/block/block.0/block.0.6/BatchNormalization_output_0",
          "Location": "Device",
          "Dimensions": [
            1,
            16,
            128,
            128
          ],
          "Format/Datatype": "Row major linear FP32"
        }
      ],
      "ParameterType": "Scale",
      "Mode": "CHANNEL",
      "Shift": {
        "Type": "Float",
        "Count": 16
      },
      "Scale": {
        "Type": "Float",
        "Count": 16
      },
      "Power": {
        "Type": "Float",
        "Count": 0
      },
      "Activation": "NONE",
      "ChannelAxis": 1,
      "TacticValue": "0x0000000000000000",
      "StreamId": 0,
      "Metadata": "[ONNX Layer: /encoder2/block/block.0/block.0.6/BatchNormalization]"
    },
    {
      "Name": "/encoder2/up/conv/conv.0/input_quantizer/QuantizeLinear",
      "LayerType": "Reformat",
      "Inputs": [
        {
          "Name": "/encoder2/block/block.0/block.0.6/BatchNormalization_output_0",
          "Location": "Device",
          "Dimensions": [
            1,
            16,
            128,
            128
          ],
          "Format/Datatype": "Row major linear FP32"
        }
      ],
      "Outputs": [
        {
          "Name": "/encoder2/up/conv/conv.0/input_quantizer/QuantizeLinear_output_0",
          "Location": "Device",
          "Dimensions": [
            1,
            16,
            128,
            128
          ],
          "Format/Datatype": "Four wide channel vectorized row major Int8 format"
        }
      ],
      "ParameterType": "Reformat",
      "Origin": "QDQ",
      "TacticValue": "0x0000000000000000",
      "StreamId": 0,
      "Metadata": "[ONNX Layer: /encoder2/up/conv/conv.0/input_quantizer/QuantizeLinear]"
    },
    {
      "Name": "encoder2.up.conv.0.weight + /encoder2/up/conv/conv.0/weight_quantizer/QuantizeLinear + /encoder2/up/conv/conv.0/Conv",
      "LayerType": "CaskConvolution",
      "Inputs": [
        {
          "Name": "/encoder2/up/conv/conv.0/input_quantizer/QuantizeLinear_output_0",
          "Location": "Device",
          "Dimensions": [
            1,
            16,
            128,
            128
          ],
          "Format/Datatype": "Four wide channel vectorized row major Int8 format"
        }
      ],
      "Outputs": [
        {
          "Name": "/encoder2/up/conv/conv.2/Relu_output_0",
          "Location": "Device",
          "Dimensions": [
            1,
            32,
            128,
            128
          ],
          "Format/Datatype": "Row major linear FP32"
        }
      ],
      "ParameterType": "Convolution",
      "Kernel": [
        3,
        3
      ],
      "PaddingMode": "kEXPLICIT_ROUND_DOWN",
      "PrePadding": [
        1,
        1
      ],
      "PostPadding": [
        1,
        1
      ],
      "Stride": [
        1,
        1
      ],
      "Dilation": [
        1,
        1
      ],
      "OutMaps": 32,
      "Groups": 1,
      "Weights": {
        "Type": "Int8",
        "Count": 4608
      },
      "Bias": {
        "Type": "Float",
        "Count": 32
      },
      "HasBias": 1,
      "HasReLU": 1,
      "HasSparseWeights": 0,
      "HasDynamicFilter": 0,
      "HasDynamicBias": 0,
      "HasResidual": 0,
      "ConvXAsActInputIdx": -1,
      "BiasAsActInputIdx": -1,
      "ResAsActInputIdx": -1,
      "Activation": "RELU",
      "TacticName": "volta_fp32_icudnn_int8x4_128x32_relu_small_nn_v1",
      "TacticValue": "0x170705f9b2fc8d53",
      "StreamId": 0,
      "Metadata": "[ONNX Layer: /encoder2/up/conv/conv.0/weight_quantizer/QuantizeLinear]\u001e[ONNX Layer: /encoder2/up/conv/conv.0/Conv]\u001e[ONNX Layer: /encoder2/up/conv/conv.1/BatchNormalization]\u001e[ONNX Layer: /encoder2/up/conv/conv.2/Relu]\u001e[ONNX Layer: /encoder2/up/conv/conv.0/input_quantizer/DequantizeLinear]\u001e[ONNX Layer: /encoder2/up/conv/conv.0/weight_quantizer/DequantizeLinear]"
    },
    {
      "Name": "/Maxpool/input_quantizer_1/QuantizeLinear",
      "LayerType": "Reformat",
      "Inputs": [
        {
          "Name": "/encoder2/up/conv/conv.2/Relu_output_0",
          "Location": "Device",
          "Dimensions": [
            1,
            32,
            128,
            128
          ],
          "Format/Datatype": "Row major linear FP32"
        }
      ],
      "Outputs": [
        {
          "Name": "/Maxpool/input_quantizer_1/QuantizeLinear_output_0",
          "Location": "Device",
          "Dimensions": [
            1,
            32,
            128,
            128
          ],
          "Format/Datatype": "Four wide channel vectorized row major Int8 format"
        }
      ],
      "ParameterType": "Reformat",
      "Origin": "QDQ",
      "TacticValue": "0x0000000000000000",
      "StreamId": 0,
      "Metadata": "[ONNX Layer: /Maxpool/input_quantizer_1/QuantizeLinear]"
    },
    {
      "Name": "/Maxpool_1/MaxPool",
      "LayerType": "CaskPooling",
      "Inputs": [
        {
          "Name": "/Maxpool/input_quantizer_1/QuantizeLinear_output_0",
          "Location": "Device",
          "Dimensions": [
            1,
            32,
            128,
            128
          ],
          "Format/Datatype": "Four wide channel vectorized row major Int8 format"
        }
      ],
      "Outputs": [
        {
          "Name": "/Maxpool/input_quantizer_1/DequantizeLinear_output_0",
          "Location": "Device",
          "Dimensions": [
            1,
            32,
            64,
            64
          ],
          "Format/Datatype": "Four wide channel vectorized row major Int8 format"
        }
      ],
      "ParameterType": "Pooling",
      "PoolingType": "MAX",
      "WindowSize": [
        2,
        2
      ],
      "PaddingMode": "kEXPLICIT_ROUND_DOWN",
      "PrePadding": [
        0,
        0
      ],
      "PostPadding": [
        0,
        0
      ],
      "Stride": [
        2,
        2
      ],
      "BlendFactor": 0,
      "AverageCountExcludesPadding": 1,
      "TacticName": "sm50_xmma_pooling_CHWPacked_NCxHW4_kMAX",
      "TacticValue": "0x1f6c40e3e09ec730",
      "StreamId": 0,
      "Metadata": "[ONNX Layer: /Maxpool_1/MaxPool]"
    },
    {
      "Name": "/Maxpool/input_quantizer_1/DequantizeLinear_clone_1",
      "LayerType": "Reformat",
      "Inputs": [
        {
          "Name": "/Maxpool/input_quantizer_1/DequantizeLinear_output_0",
          "Location": "Device",
          "Dimensions": [
            1,
            32,
            64,
            64
          ],
          "Format/Datatype": "Four wide channel vectorized row major Int8 format"
        }
      ],
      "Outputs": [
        {
          "Name": "/Maxpool_1/MaxPool_output_0_clone_1",
          "Location": "Device",
          "Dimensions": [
            1,
            32,
            64,
            64
          ],
          "Format/Datatype": "Row major linear FP32"
        }
      ],
      "ParameterType": "Reformat",
      "Origin": "QDQ",
      "TacticValue": "0x0000000000000000",
      "StreamId": 0,
      "Metadata": "[ONNX Layer: /Maxpool/input_quantizer_1/DequantizeLinear]"
    },
    {
      "Name": "/Maxpool/input_quantizer_1/DequantizeLinear_clone_0 + /encoder3/block/block.0/block.0.0/fn/fn.0/input_quantizer/QuantizeLinear",
      "LayerType": "Scale",
      "Inputs": [
        {
          "Name": "/Maxpool/input_quantizer_1/DequantizeLinear_output_0",
          "Location": "Device",
          "Dimensions": [
            1,
            32,
            64,
            64
          ],
          "Format/Datatype": "Four wide channel vectorized row major Int8 format"
        }
      ],
      "Outputs": [
        {
          "Name": "/encoder3/block/block.0/block.0.0/fn/fn.0/input_quantizer/QuantizeLinear_output_0",
          "Location": "Device",
          "Dimensions": [
            1,
            32,
            64,
            64
          ],
          "Format/Datatype": "Four wide channel vectorized row major Int8 format"
        }
      ],
      "ParameterType": "Scale",
      "Mode": "UNIFORM",
      "Shift": {
        "Type": "Float",
        "Count": 1
      },
      "Scale": {
        "Type": "Float",
        "Count": 1
      },
      "Power": {
        "Type": "Float",
        "Count": 0
      },
      "Activation": "NONE",
      "ChannelAxis": 1,
      "TacticValue": "0x0000000000000000",
      "StreamId": 0,
      "Metadata": "[ONNX Layer: /Maxpool/input_quantizer_1/DequantizeLinear]\u001e[ONNX Layer: /encoder3/block/block.0/block.0.0/fn/fn.0/input_quantizer/QuantizeLinear]"
    },
    {
      "Name": "encoder3.block.0.0.fn.0.weight + /encoder3/block/block.0/block.0.0/fn/fn.0/weight_quantizer/QuantizeLinear + /encoder3/block/block.0/block.0.0/fn/fn.0/Conv",
      "LayerType": "CaskConvolution",
      "Inputs": [
        {
          "Name": "/encoder3/block/block.0/block.0.0/fn/fn.0/input_quantizer/QuantizeLinear_output_0",
          "Location": "Device",
          "Dimensions": [
            1,
            32,
            64,
            64
          ],
          "Format/Datatype": "Four wide channel vectorized row major Int8 format"
        }
      ],
      "Outputs": [
        {
          "Name": "/encoder3/block/block.0/block.0.0/fn/fn.0/Conv_output_0",
          "Location": "Device",
          "Dimensions": [
            1,
            32,
            64,
            64
          ],
          "Format/Datatype": "Row major linear FP32"
        }
      ],
      "ParameterType": "Convolution",
      "Kernel": [
        7,
        7
      ],
      "PaddingMode": "kEXPLICIT_ROUND_DOWN",
      "PrePadding": [
        3,
        3
      ],
      "PostPadding": [
        3,
        3
      ],
      "Stride": [
        1,
        1
      ],
      "Dilation": [
        1,
        1
      ],
      "OutMaps": 32,
      "Groups": 32,
      "Weights": {
        "Type": "Int8",
        "Count": 1568
      },
      "Bias": {
        "Type": "Float",
        "Count": 32
      },
      "HasBias": 1,
      "HasReLU": 0,
      "HasSparseWeights": 0,
      "HasDynamicFilter": 0,
      "HasDynamicBias": 0,
      "HasResidual": 0,
      "ConvXAsActInputIdx": -1,
      "BiasAsActInputIdx": -1,
      "ResAsActInputIdx": -1,
      "Activation": "NONE",
      "TacticName": "sm61_xmma_convolution_trt_depthwise_i8_conv_int8ncxhw4_fp32nchw_int8kcrs_R1_S1_U1_V1_spv4",
      "TacticValue": "0xb1a8f619ca27370b",
      "StreamId": 0,
      "Metadata": "[ONNX Layer: /encoder3/block/block.0/block.0.0/fn/fn.0/weight_quantizer/QuantizeLinear]\u001e[ONNX Layer: /encoder3/block/block.0/block.0.0/fn/fn.0/Conv]\u001e[ONNX Layer: /encoder3/block/block.0/block.0.0/fn/fn.0/input_quantizer/DequantizeLinear]\u001e[ONNX Layer: /encoder3/block/block.0/block.0.0/fn/fn.0/weight_quantizer/DequantizeLinear]"
    },
    {
      "Name": "PWN(PWN(PWN(PWN(PWN(/encoder3/block/block.0/block.0.0/fn/fn.1/Constant_output_0 + ONNXTRT_Broadcast_78, /encoder3/block/block.0/block.0.0/fn/fn.1/Div), /encoder3/block/block.0/block.0.0/fn/fn.1/Erf), /encoder3/block/block.0/block.0.0/fn/fn.1/Constant_1_output_0 + ONNXTRT_Broadcast_80 + /encoder3/block/block.0/block.0.0/fn/fn.1/Add), /encoder3/block/block.0/block.0.0/fn/fn.1/Mul), /encoder3/block/block.0/block.0.0/fn/fn.1/Constant_2_output_0 + ONNXTRT_Broadcast_82 + /encoder3/block/block.0/block.0.0/fn/fn.1/Mul_1)",
      "LayerType": "PointWiseV2",
      "Inputs": [
        {
          "Name": "/encoder3/block/block.0/block.0.0/fn/fn.0/Conv_output_0",
          "Location": "Device",
          "Dimensions": [
            1,
            32,
            64,
            64
          ],
          "Format/Datatype": "Row major linear FP32"
        }
      ],
      "Outputs": [
        {
          "Name": "/encoder3/block/block.0/block.0.0/fn/fn.1/Mul_1_output_0",
          "Location": "Device",
          "Dimensions": [
            1,
            32,
            64,
            64
          ],
          "Format/Datatype": "Row major linear FP32"
        }
      ],
      "ParameterType": "PointWise",
      "ParameterSubType": "PointWiseExpression",
      "NbInputArgs": 1,
      "InputArgs": [
        "arg0"
      ],
      "NbOutputVars": 1,
      "OutputVars": [
        "var4"
      ],
      "NbParams": 0,
      "Params": [],
      "NbLiterals": 5,
      "Literals": [
        "1.414214e+00f",
        "0.000000e+00f",
        "1.000000e+00f",
        "0.000000e+00f",
        "5.000000e-01f"
      ],
      "NbOperations": 5,
      "Operations": [
        "auto const var0 = pwgen::iDiv(arg0, literal0);",
        "auto const var1 = pwgen::iErf(var0);",
        "auto const var2 = pwgen::iPlus(var1, literal2);",
        "auto const var3 = pwgen::iMul(arg0, var2);",
        "auto const var4 = pwgen::iMul(var3, literal4);"
      ],
      "TacticValue": "0x0000000000000005",
      "StreamId": 0,
      "Metadata": "[ONNX Layer: /encoder3/block/block.0/block.0.0/fn/fn.1/Div]\u001e[ONNX Layer: /encoder3/block/block.0/block.0.0/fn/fn.1/Erf]\u001e[ONNX Layer: /encoder3/block/block.0/block.0.0/fn/fn.1/Add]\u001e[ONNX Layer: /encoder3/block/block.0/block.0.0/fn/fn.1/Mul]\u001e[ONNX Layer: /encoder3/block/block.0/block.0.0/fn/fn.1/Mul_1]"
    },
    {
      "Name": "/encoder3/block/block.0/block.0.0/fn/fn.2/BatchNormalization",
      "LayerType": "Scale",
      "Inputs": [
        {
          "Name": "/encoder3/block/block.0/block.0.0/fn/fn.1/Mul_1_output_0",
          "Location": "Device",
          "Dimensions": [
            1,
            32,
            64,
            64
          ],
          "Format/Datatype": "Row major linear FP32"
        }
      ],
      "Outputs": [
        {
          "Name": "/encoder3/block/block.0/block.0.0/fn/fn.2/BatchNormalization_output_0",
          "Location": "Device",
          "Dimensions": [
            1,
            32,
            64,
            64
          ],
          "Format/Datatype": "Row major linear FP32"
        }
      ],
      "ParameterType": "Scale",
      "Mode": "CHANNEL",
      "Shift": {
        "Type": "Float",
        "Count": 32
      },
      "Scale": {
        "Type": "Float",
        "Count": 32
      },
      "Power": {
        "Type": "Float",
        "Count": 0
      },
      "Activation": "NONE",
      "ChannelAxis": 1,
      "TacticValue": "0x0000000000000000",
      "StreamId": 0,
      "Metadata": "[ONNX Layer: /encoder3/block/block.0/block.0.0/fn/fn.2/BatchNormalization]"
    },
    {
      "Name": "PWN(/encoder3/block/block.0/block.0.0/Add)",
      "LayerType": "PointWiseV2",
      "Inputs": [
        {
          "Name": "/encoder3/block/block.0/block.0.0/fn/fn.2/BatchNormalization_output_0",
          "Location": "Device",
          "Dimensions": [
            1,
            32,
            64,
            64
          ],
          "Format/Datatype": "Row major linear FP32"
        },
        {
          "Name": "/Maxpool_1/MaxPool_output_0_clone_1",
          "Location": "Device",
          "Dimensions": [
            1,
            32,
            64,
            64
          ],
          "Format/Datatype": "Row major linear FP32"
        }
      ],
      "Outputs": [
        {
          "Name": "/encoder3/block/block.0/block.0.1/input_quantizer/QuantizeLinear_output_0",
          "Location": "Device",
          "Dimensions": [
            1,
            32,
            64,
            64
          ],
          "Format/Datatype": "Row major Int8 format"
        }
      ],
      "ParameterType": "PointWise",
      "ParameterSubType": "PointWiseExpression",
      "NbInputArgs": 2,
      "InputArgs": [
        "arg0",
        "arg1"
      ],
      "NbOutputVars": 1,
      "OutputVars": [
        "var0"
      ],
      "NbParams": 0,
      "Params": [],
      "NbLiterals": 0,
      "Literals": [],
      "NbOperations": 1,
      "Operations": [
        "auto const var0 = pwgen::iPlus(arg0, arg1);"
      ],
      "TacticValue": "0x0000000000000008",
      "StreamId": 0,
      "Metadata": "[ONNX Layer: /encoder3/block/block.0/block.0.0/Add]\u001e[ONNX Layer: /encoder3/block/block.0/block.0.1/input_quantizer/QuantizeLinear]"
    },
    {
      "Name": "Reformatting CopyNode for Input Tensor 0 to encoder3.block.0.1.weight + /encoder3/block/block.0/block.0.1/weight_quantizer/QuantizeLinear + /encoder3/block/block.0/block.0.1/Conv + PWN(PWN(PWN(PWN(PWN(/encoder3/block/block.0/block.0.2/Constant_output_0 + ONNXTRT_Broadcast_88, /encoder3/block/block.0/block.0.2/Div), /encoder3/block/block.0/block.0.2/Erf), /encoder3/block/block.0/block.0.2/Constant_1_output_0 + ONNXTRT_Broadcast_90 + /encoder3/block/block.0/block.0.2/Add), /encoder3/block/block.0/block.0.2/Mul), /encoder3/block/block.0/block.0.2/Constant_2_output_0 + ONNXTRT_Broadcast_92 + /encoder3/block/block.0/block.0.2/Mul_1)",
      "LayerType": "Reformat",
      "Inputs": [
        {
          "Name": "/encoder3/block/block.0/block.0.1/input_quantizer/QuantizeLinear_output_0",
          "Location": "Device",
          "Dimensions": [
            1,
            32,
            64,
            64
          ],
          "Format/Datatype": "Row major Int8 format"
        }
      ],
      "Outputs": [
        {
          "Name": "Reformatted Input Tensor 0 to encoder3.block.0.1.weight + /encoder3/block/block.0/block.0.1/weight_quantizer/QuantizeLinear + /encoder3/block/block.0/block.0.1/Conv + PWN(PWN(PWN(PWN(PWN(/encoder3/block/block.0/block.0.2/Constant_output_0 + ONNXTRT_Broadcast_88, /encoder3/block/block.0/block.0.2/Div), /encoder3/block/block.0/block.0.2/Erf), /encoder3/block/block.0/block.0.2/Constant_1_output_0 + ONNXTRT_Broadcast_90 + /encoder3/block/block.0/block.0.2/Add), /encoder3/block/block.0/block.0.2/Mul), /encoder3/block/block.0/block.0.2/Constant_2_output_0 + ONNXTRT_Broadcast_92 + /encoder3/block/block.0/block.0.2/Mul_1)",
          "Location": "Device",
          "Dimensions": [
            1,
            32,
            64,
            64
          ],
          "Format/Datatype": "Four wide channel vectorized row major Int8 format"
        }
      ],
      "ParameterType": "Reformat",
      "Origin": "REFORMAT",
      "TacticValue": "0x0000000000000000",
      "StreamId": 0,
      "Metadata": ""
    },
    {
      "Name": "encoder3.block.0.1.weight + /encoder3/block/block.0/block.0.1/weight_quantizer/QuantizeLinear + /encoder3/block/block.0/block.0.1/Conv + PWN(PWN(PWN(PWN(PWN(/encoder3/block/block.0/block.0.2/Constant_output_0 + ONNXTRT_Broadcast_88, /encoder3/block/block.0/block.0.2/Div), /encoder3/block/block.0/block.0.2/Erf), /encoder3/block/block.0/block.0.2/Constant_1_output_0 + ONNXTRT_Broadcast_90 + /encoder3/block/block.0/block.0.2/Add), /encoder3/block/block.0/block.0.2/Mul), /encoder3/block/block.0/block.0.2/Constant_2_output_0 + ONNXTRT_Broadcast_92 + /encoder3/block/block.0/block.0.2/Mul_1)",
      "LayerType": "CaskConvolution",
      "Inputs": [
        {
          "Name": "Reformatted Input Tensor 0 to encoder3.block.0.1.weight + /encoder3/block/block.0/block.0.1/weight_quantizer/QuantizeLinear + /encoder3/block/block.0/block.0.1/Conv + PWN(PWN(PWN(PWN(PWN(/encoder3/block/block.0/block.0.2/Constant_output_0 + ONNXTRT_Broadcast_88, /encoder3/block/block.0/block.0.2/Div), /encoder3/block/block.0/block.0.2/Erf), /encoder3/block/block.0/block.0.2/Constant_1_output_0 + ONNXTRT_Broadcast_90 + /encoder3/block/block.0/block.0.2/Add), /encoder3/block/block.0/block.0.2/Mul), /encoder3/block/block.0/block.0.2/Constant_2_output_0 + ONNXTRT_Broadcast_92 + /encoder3/block/block.0/block.0.2/Mul_1)",
          "Location": "Device",
          "Dimensions": [
            1,
            32,
            64,
            64
          ],
          "Format/Datatype": "Four wide channel vectorized row major Int8 format"
        }
      ],
      "Outputs": [
        {
          "Name": "/encoder3/block/block.0/block.0.2/Mul_1_output_0",
          "Location": "Device",
          "Dimensions": [
            1,
            128,
            64,
            64
          ],
          "Format/Datatype": "Row major linear FP32"
        }
      ],
      "ParameterType": "Convolution",
      "Kernel": [
        1,
        1
      ],
      "PaddingMode": "kEXPLICIT_ROUND_DOWN",
      "PrePadding": [
        0,
        0
      ],
      "PostPadding": [
        0,
        0
      ],
      "Stride": [
        1,
        1
      ],
      "Dilation": [
        1,
        1
      ],
      "OutMaps": 128,
      "Groups": 1,
      "Weights": {
        "Type": "Int8",
        "Count": 4096
      },
      "Bias": {
        "Type": "Float",
        "Count": 128
      },
      "HasBias": 1,
      "HasReLU": 0,
      "HasSparseWeights": 0,
      "HasDynamicFilter": 0,
      "HasDynamicBias": 0,
      "HasResidual": 0,
      "ConvXAsActInputIdx": -1,
      "BiasAsActInputIdx": -1,
      "ResAsActInputIdx": -1,
      "Activation": "GENERIC",
      "ParameterSubType": "PointWiseExpression",
      "NbPointWiseExpressionInputArgs": 1,
      "PointWiseExpressionInputArgs": [
        "arg0"
      ],
      "NbPointWiseExpressionOutputVars": 1,
      "PointWiseExpressionOutputVars": [
        "var4"
      ],
      "NbPointWiseExpressionParams": 0,
      "PointWiseExpressionParams": [],
      "NbPointWiseExpressionLiterals": 5,
      "PointWiseExpressionLiterals": [
        "1.414214e+00f",
        "0.000000e+00f",
        "1.000000e+00f",
        "0.000000e+00f",
        "5.000000e-01f"
      ],
      "NbPointWiseExpressionOperations": 5,
      "PointWiseExpressionOperations": [
        "auto const var0 = pwgen::iDiv(arg0, literal0);",
        "auto const var1 = pwgen::iErf(var0);",
        "auto const var2 = pwgen::iPlus(var1, literal2);",
        "auto const var3 = pwgen::iMul(arg0, var2);",
        "auto const var4 = pwgen::iMul(var3, literal4);"
      ],
      "TacticName": "volta_fp32_icudnn_int8x4_128x32_relu_interior_nn_v1",
      "TacticValue": "0xc9c0872569525a26",
      "StreamId": 0,
      "Metadata": "[ONNX Layer: /encoder3/block/block.0/block.0.1/weight_quantizer/QuantizeLinear]\u001e[ONNX Layer: /encoder3/block/block.0/block.0.1/Conv]\u001e[ONNX Layer: /encoder3/block/block.0/block.0.2/Div]\u001e[ONNX Layer: /encoder3/block/block.0/block.0.2/Erf]\u001e[ONNX Layer: /encoder3/block/block.0/block.0.2/Add]\u001e[ONNX Layer: /encoder3/block/block.0/block.0.2/Mul]\u001e[ONNX Layer: /encoder3/block/block.0/block.0.2/Mul_1]\u001e[ONNX Layer: /encoder3/block/block.0/block.0.1/input_quantizer/DequantizeLinear]\u001e[ONNX Layer: /encoder3/block/block.0/block.0.1/weight_quantizer/DequantizeLinear]"
    },
    {
      "Name": "/encoder3/block/block.0/block.0.3/BatchNormalization",
      "LayerType": "Scale",
      "Inputs": [
        {
          "Name": "/encoder3/block/block.0/block.0.2/Mul_1_output_0",
          "Location": "Device",
          "Dimensions": [
            1,
            128,
            64,
            64
          ],
          "Format/Datatype": "Row major linear FP32"
        }
      ],
      "Outputs": [
        {
          "Name": "/encoder3/block/block.0/block.0.3/BatchNormalization_output_0",
          "Location": "Device",
          "Dimensions": [
            1,
            128,
            64,
            64
          ],
          "Format/Datatype": "Row major linear FP32"
        }
      ],
      "ParameterType": "Scale",
      "Mode": "CHANNEL",
      "Shift": {
        "Type": "Float",
        "Count": 128
      },
      "Scale": {
        "Type": "Float",
        "Count": 128
      },
      "Power": {
        "Type": "Float",
        "Count": 0
      },
      "Activation": "NONE",
      "ChannelAxis": 1,
      "TacticValue": "0x0000000000000000",
      "StreamId": 0,
      "Metadata": "[ONNX Layer: /encoder3/block/block.0/block.0.3/BatchNormalization]"
    },
    {
      "Name": "/encoder3/block/block.0/block.0.4/input_quantizer/QuantizeLinear",
      "LayerType": "Reformat",
      "Inputs": [
        {
          "Name": "/encoder3/block/block.0/block.0.3/BatchNormalization_output_0",
          "Location": "Device",
          "Dimensions": [
            1,
            128,
            64,
            64
          ],
          "Format/Datatype": "Row major linear FP32"
        }
      ],
      "Outputs": [
        {
          "Name": "/encoder3/block/block.0/block.0.4/input_quantizer/QuantizeLinear_output_0",
          "Location": "Device",
          "Dimensions": [
            1,
            128,
            64,
            64
          ],
          "Format/Datatype": "Four wide channel vectorized row major Int8 format"
        }
      ],
      "ParameterType": "Reformat",
      "Origin": "QDQ",
      "TacticValue": "0x0000000000000000",
      "StreamId": 0,
      "Metadata": "[ONNX Layer: /encoder3/block/block.0/block.0.4/input_quantizer/QuantizeLinear]"
    },
    {
      "Name": "encoder3.block.0.4.weight + /encoder3/block/block.0/block.0.4/weight_quantizer/QuantizeLinear + /encoder3/block/block.0/block.0.4/Conv + PWN(PWN(PWN(PWN(PWN(/encoder3/block/block.0/block.0.5/Constant_output_0 + ONNXTRT_Broadcast_98, /encoder3/block/block.0/block.0.5/Div), /encoder3/block/block.0/block.0.5/Erf), /encoder3/block/block.0/block.0.5/Constant_1_output_0 + ONNXTRT_Broadcast_100 + /encoder3/block/block.0/block.0.5/Add), /encoder3/block/block.0/block.0.5/Mul), /encoder3/block/block.0/block.0.5/Constant_2_output_0 + ONNXTRT_Broadcast_102 + /encoder3/block/block.0/block.0.5/Mul_1)",
      "LayerType": "CaskConvolution",
      "Inputs": [
        {
          "Name": "/encoder3/block/block.0/block.0.4/input_quantizer/QuantizeLinear_output_0",
          "Location": "Device",
          "Dimensions": [
            1,
            128,
            64,
            64
          ],
          "Format/Datatype": "Four wide channel vectorized row major Int8 format"
        }
      ],
      "Outputs": [
        {
          "Name": "/encoder3/block/block.0/block.0.5/Mul_1_output_0",
          "Location": "Device",
          "Dimensions": [
            1,
            32,
            64,
            64
          ],
          "Format/Datatype": "Row major linear FP32"
        }
      ],
      "ParameterType": "Convolution",
      "Kernel": [
        1,
        1
      ],
      "PaddingMode": "kEXPLICIT_ROUND_DOWN",
      "PrePadding": [
        0,
        0
      ],
      "PostPadding": [
        0,
        0
      ],
      "Stride": [
        1,
        1
      ],
      "Dilation": [
        1,
        1
      ],
      "OutMaps": 32,
      "Groups": 1,
      "Weights": {
        "Type": "Int8",
        "Count": 4096
      },
      "Bias": {
        "Type": "Float",
        "Count": 32
      },
      "HasBias": 1,
      "HasReLU": 0,
      "HasSparseWeights": 0,
      "HasDynamicFilter": 0,
      "HasDynamicBias": 0,
      "HasResidual": 0,
      "ConvXAsActInputIdx": -1,
      "BiasAsActInputIdx": -1,
      "ResAsActInputIdx": -1,
      "Activation": "GENERIC",
      "ParameterSubType": "PointWiseExpression",
      "NbPointWiseExpressionInputArgs": 1,
      "PointWiseExpressionInputArgs": [
        "arg0"
      ],
      "NbPointWiseExpressionOutputVars": 1,
      "PointWiseExpressionOutputVars": [
        "var4"
      ],
      "NbPointWiseExpressionParams": 0,
      "PointWiseExpressionParams": [],
      "NbPointWiseExpressionLiterals": 5,
      "PointWiseExpressionLiterals": [
        "1.414214e+00f",
        "0.000000e+00f",
        "1.000000e+00f",
        "0.000000e+00f",
        "5.000000e-01f"
      ],
      "NbPointWiseExpressionOperations": 5,
      "PointWiseExpressionOperations": [
        "auto const var0 = pwgen::iDiv(arg0, literal0);",
        "auto const var1 = pwgen::iErf(var0);",
        "auto const var2 = pwgen::iPlus(var1, literal2);",
        "auto const var3 = pwgen::iMul(arg0, var2);",
        "auto const var4 = pwgen::iMul(var3, literal4);"
      ],
      "TacticName": "volta_fp32_icudnn_int8x4_128x32_relu_xregs_interior_nn_v1",
      "TacticValue": "0x980f6ae6834453a3",
      "StreamId": 0,
      "Metadata": "[ONNX Layer: /encoder3/block/block.0/block.0.4/weight_quantizer/QuantizeLinear]\u001e[ONNX Layer: /encoder3/block/block.0/block.0.4/Conv]\u001e[ONNX Layer: /encoder3/block/block.0/block.0.5/Div]\u001e[ONNX Layer: /encoder3/block/block.0/block.0.5/Erf]\u001e[ONNX Layer: /encoder3/block/block.0/block.0.5/Add]\u001e[ONNX Layer: /encoder3/block/block.0/block.0.5/Mul]\u001e[ONNX Layer: /encoder3/block/block.0/block.0.5/Mul_1]\u001e[ONNX Layer: /encoder3/block/block.0/block.0.4/input_quantizer/DequantizeLinear]\u001e[ONNX Layer: /encoder3/block/block.0/block.0.4/weight_quantizer/DequantizeLinear]"
    },
    {
      "Name": "/encoder3/block/block.0/block.0.6/BatchNormalization",
      "LayerType": "Scale",
      "Inputs": [
        {
          "Name": "/encoder3/block/block.0/block.0.5/Mul_1_output_0",
          "Location": "Device",
          "Dimensions": [
            1,
            32,
            64,
            64
          ],
          "Format/Datatype": "Row major linear FP32"
        }
      ],
      "Outputs": [
        {
          "Name": "/encoder3/block/block.0/block.0.6/BatchNormalization_output_0",
          "Location": "Device",
          "Dimensions": [
            1,
            32,
            64,
            64
          ],
          "Format/Datatype": "Row major linear FP32"
        }
      ],
      "ParameterType": "Scale",
      "Mode": "CHANNEL",
      "Shift": {
        "Type": "Float",
        "Count": 32
      },
      "Scale": {
        "Type": "Float",
        "Count": 32
      },
      "Power": {
        "Type": "Float",
        "Count": 0
      },
      "Activation": "NONE",
      "ChannelAxis": 1,
      "TacticValue": "0x0000000000000000",
      "StreamId": 0,
      "Metadata": "[ONNX Layer: /encoder3/block/block.0/block.0.6/BatchNormalization]"
    },
    {
      "Name": "/encoder3/up/conv/conv.0/input_quantizer/QuantizeLinear",
      "LayerType": "Reformat",
      "Inputs": [
        {
          "Name": "/encoder3/block/block.0/block.0.6/BatchNormalization_output_0",
          "Location": "Device",
          "Dimensions": [
            1,
            32,
            64,
            64
          ],
          "Format/Datatype": "Row major linear FP32"
        }
      ],
      "Outputs": [
        {
          "Name": "/encoder3/up/conv/conv.0/input_quantizer/QuantizeLinear_output_0",
          "Location": "Device",
          "Dimensions": [
            1,
            32,
            64,
            64
          ],
          "Format/Datatype": "Four wide channel vectorized row major Int8 format"
        }
      ],
      "ParameterType": "Reformat",
      "Origin": "QDQ",
      "TacticValue": "0x0000000000000000",
      "StreamId": 0,
      "Metadata": "[ONNX Layer: /encoder3/up/conv/conv.0/input_quantizer/QuantizeLinear]"
    },
    {
      "Name": "Reformatting CopyNode for Input Tensor 0 to encoder3.up.conv.0.weight + /encoder3/up/conv/conv.0/weight_quantizer/QuantizeLinear + /encoder3/up/conv/conv.0/Conv",
      "LayerType": "Reformat",
      "Inputs": [
        {
          "Name": "/encoder3/up/conv/conv.0/input_quantizer/QuantizeLinear_output_0",
          "Location": "Device",
          "Dimensions": [
            1,
            32,
            64,
            64
          ],
          "Format/Datatype": "Four wide channel vectorized row major Int8 format"
        }
      ],
      "Outputs": [
        {
          "Name": "Reformatted Input Tensor 0 to encoder3.up.conv.0.weight + /encoder3/up/conv/conv.0/weight_quantizer/QuantizeLinear + /encoder3/up/conv/conv.0/Conv",
          "Location": "Device",
          "Dimensions": [
            1,
            32,
            64,
            64
          ],
          "Format/Datatype": "Thirty-two wide channel vectorized row major Int8 format"
        }
      ],
      "ParameterType": "Reformat",
      "Origin": "REFORMAT",
      "TacticValue": "0x0000000000000000",
      "StreamId": 0,
      "Metadata": ""
    },
    {
      "Name": "encoder3.up.conv.0.weight + /encoder3/up/conv/conv.0/weight_quantizer/QuantizeLinear + /encoder3/up/conv/conv.0/Conv",
      "LayerType": "CaskConvolution",
      "Inputs": [
        {
          "Name": "Reformatted Input Tensor 0 to encoder3.up.conv.0.weight + /encoder3/up/conv/conv.0/weight_quantizer/QuantizeLinear + /encoder3/up/conv/conv.0/Conv",
          "Location": "Device",
          "Dimensions": [
            1,
            32,
            64,
            64
          ],
          "Format/Datatype": "Thirty-two wide channel vectorized row major Int8 format"
        }
      ],
      "Outputs": [
        {
          "Name": "/encoder3/up/conv/conv.2/Relu_output_0",
          "Location": "Device",
          "Dimensions": [
            1,
            128,
            64,
            64
          ],
          "Format/Datatype": "Thirty-two wide channel vectorized row major FP32 format"
        }
      ],
      "ParameterType": "Convolution",
      "Kernel": [
        3,
        3
      ],
      "PaddingMode": "kEXPLICIT_ROUND_DOWN",
      "PrePadding": [
        1,
        1
      ],
      "PostPadding": [
        1,
        1
      ],
      "Stride": [
        1,
        1
      ],
      "Dilation": [
        1,
        1
      ],
      "OutMaps": 128,
      "Groups": 1,
      "Weights": {
        "Type": "Int8",
        "Count": 36864
      },
      "Bias": {
        "Type": "Float",
        "Count": 128
      },
      "HasBias": 1,
      "HasReLU": 1,
      "HasSparseWeights": 0,
      "HasDynamicFilter": 0,
      "HasDynamicBias": 0,
      "HasResidual": 0,
      "ConvXAsActInputIdx": -1,
      "BiasAsActInputIdx": -1,
      "ResAsActInputIdx": -1,
      "Activation": "RELU",
      "TacticName": "turing_fp32_i8816cudnn_int8_128x128_ldg16_relu_small_nt_v1",
      "TacticValue": "0xbcf389e221d69a92",
      "StreamId": 0,
      "Metadata": "[ONNX Layer: /encoder3/up/conv/conv.0/weight_quantizer/QuantizeLinear]\u001e[ONNX Layer: /encoder3/up/conv/conv.0/Conv]\u001e[ONNX Layer: /encoder3/up/conv/conv.1/BatchNormalization]\u001e[ONNX Layer: /encoder3/up/conv/conv.2/Relu]\u001e[ONNX Layer: /encoder3/up/conv/conv.0/input_quantizer/DequantizeLinear]\u001e[ONNX Layer: /encoder3/up/conv/conv.0/weight_quantizer/DequantizeLinear]"
    },
    {
      "Name": "/Maxpool/input_quantizer_2/QuantizeLinear",
      "LayerType": "Reformat",
      "Inputs": [
        {
          "Name": "/encoder3/up/conv/conv.2/Relu_output_0",
          "Location": "Device",
          "Dimensions": [
            1,
            128,
            64,
            64
          ],
          "Format/Datatype": "Thirty-two wide channel vectorized row major FP32 format"
        }
      ],
      "Outputs": [
        {
          "Name": "/Maxpool/input_quantizer_2/QuantizeLinear_output_0",
          "Location": "Device",
          "Dimensions": [
            1,
            128,
            64,
            64
          ],
          "Format/Datatype": "Four wide channel vectorized row major Int8 format"
        }
      ],
      "ParameterType": "Reformat",
      "Origin": "QDQ",
      "TacticValue": "0x00000000000003ea",
      "StreamId": 0,
      "Metadata": "[ONNX Layer: /Maxpool/input_quantizer_2/QuantizeLinear]"
    },
    {
      "Name": "/Maxpool_2/MaxPool",
      "LayerType": "CaskPooling",
      "Inputs": [
        {
          "Name": "/Maxpool/input_quantizer_2/QuantizeLinear_output_0",
          "Location": "Device",
          "Dimensions": [
            1,
            128,
            64,
            64
          ],
          "Format/Datatype": "Four wide channel vectorized row major Int8 format"
        }
      ],
      "Outputs": [
        {
          "Name": "/Maxpool/input_quantizer_2/DequantizeLinear_output_0",
          "Location": "Device",
          "Dimensions": [
            1,
            128,
            32,
            32
          ],
          "Format/Datatype": "Four wide channel vectorized row major Int8 format"
        }
      ],
      "ParameterType": "Pooling",
      "PoolingType": "MAX",
      "WindowSize": [
        2,
        2
      ],
      "PaddingMode": "kEXPLICIT_ROUND_DOWN",
      "PrePadding": [
        0,
        0
      ],
      "PostPadding": [
        0,
        0
      ],
      "Stride": [
        2,
        2
      ],
      "BlendFactor": 0,
      "AverageCountExcludesPadding": 1,
      "TacticName": "sm50_xmma_pooling_CHWPacked_NCxHW4_kMAX",
      "TacticValue": "0x1f6c40e3e09ec730",
      "StreamId": 0,
      "Metadata": "[ONNX Layer: /Maxpool_2/MaxPool]"
    },
    {
      "Name": "/Maxpool/input_quantizer_2/DequantizeLinear_clone_1",
      "LayerType": "Reformat",
      "Inputs": [
        {
          "Name": "/Maxpool/input_quantizer_2/DequantizeLinear_output_0",
          "Location": "Device",
          "Dimensions": [
            1,
            128,
            32,
            32
          ],
          "Format/Datatype": "Four wide channel vectorized row major Int8 format"
        }
      ],
      "Outputs": [
        {
          "Name": "/Maxpool_2/MaxPool_output_0_clone_1",
          "Location": "Device",
          "Dimensions": [
            1,
            128,
            32,
            32
          ],
          "Format/Datatype": "Row major linear FP32"
        }
      ],
      "ParameterType": "Reformat",
      "Origin": "QDQ",
      "TacticValue": "0x0000000000000000",
      "StreamId": 0,
      "Metadata": "[ONNX Layer: /Maxpool/input_quantizer_2/DequantizeLinear]"
    },
    {
      "Name": "/Maxpool/input_quantizer_2/DequantizeLinear_clone_0 + /encoder4/block/block.0/block.0.0/fn/fn.0/input_quantizer/QuantizeLinear",
      "LayerType": "Scale",
      "Inputs": [
        {
          "Name": "/Maxpool/input_quantizer_2/DequantizeLinear_output_0",
          "Location": "Device",
          "Dimensions": [
            1,
            128,
            32,
            32
          ],
          "Format/Datatype": "Four wide channel vectorized row major Int8 format"
        }
      ],
      "Outputs": [
        {
          "Name": "/encoder4/block/block.0/block.0.0/fn/fn.0/input_quantizer/QuantizeLinear_output_0",
          "Location": "Device",
          "Dimensions": [
            1,
            128,
            32,
            32
          ],
          "Format/Datatype": "Four wide channel vectorized row major Int8 format"
        }
      ],
      "ParameterType": "Scale",
      "Mode": "UNIFORM",
      "Shift": {
        "Type": "Float",
        "Count": 1
      },
      "Scale": {
        "Type": "Float",
        "Count": 1
      },
      "Power": {
        "Type": "Float",
        "Count": 0
      },
      "Activation": "NONE",
      "ChannelAxis": 1,
      "TacticValue": "0x0000000000000000",
      "StreamId": 0,
      "Metadata": "[ONNX Layer: /Maxpool/input_quantizer_2/DequantizeLinear]\u001e[ONNX Layer: /encoder4/block/block.0/block.0.0/fn/fn.0/input_quantizer/QuantizeLinear]"
    },
    {
      "Name": "encoder4.block.0.0.fn.0.weight + /encoder4/block/block.0/block.0.0/fn/fn.0/weight_quantizer/QuantizeLinear + /encoder4/block/block.0/block.0.0/fn/fn.0/Conv",
      "LayerType": "CaskConvolution",
      "Inputs": [
        {
          "Name": "/encoder4/block/block.0/block.0.0/fn/fn.0/input_quantizer/QuantizeLinear_output_0",
          "Location": "Device",
          "Dimensions": [
            1,
            128,
            32,
            32
          ],
          "Format/Datatype": "Four wide channel vectorized row major Int8 format"
        }
      ],
      "Outputs": [
        {
          "Name": "/encoder4/block/block.0/block.0.0/fn/fn.0/Conv_output_0",
          "Location": "Device",
          "Dimensions": [
            1,
            128,
            32,
            32
          ],
          "Format/Datatype": "Row major linear FP32"
        }
      ],
      "ParameterType": "Convolution",
      "Kernel": [
        7,
        7
      ],
      "PaddingMode": "kEXPLICIT_ROUND_DOWN",
      "PrePadding": [
        3,
        3
      ],
      "PostPadding": [
        3,
        3
      ],
      "Stride": [
        1,
        1
      ],
      "Dilation": [
        1,
        1
      ],
      "OutMaps": 128,
      "Groups": 128,
      "Weights": {
        "Type": "Int8",
        "Count": 6272
      },
      "Bias": {
        "Type": "Float",
        "Count": 128
      },
      "HasBias": 1,
      "HasReLU": 0,
      "HasSparseWeights": 0,
      "HasDynamicFilter": 0,
      "HasDynamicBias": 0,
      "HasResidual": 0,
      "ConvXAsActInputIdx": -1,
      "BiasAsActInputIdx": -1,
      "ResAsActInputIdx": -1,
      "Activation": "NONE",
      "TacticName": "sm61_xmma_convolution_trt_depthwise_i8_conv_int8ncxhw4_fp32nchw_int8kcrs_R1_S1_U1_V1_spv4",
      "TacticValue": "0xb1a8f619ca27370b",
      "StreamId": 0,
      "Metadata": "[ONNX Layer: /encoder4/block/block.0/block.0.0/fn/fn.0/weight_quantizer/QuantizeLinear]\u001e[ONNX Layer: /encoder4/block/block.0/block.0.0/fn/fn.0/Conv]\u001e[ONNX Layer: /encoder4/block/block.0/block.0.0/fn/fn.0/input_quantizer/DequantizeLinear]\u001e[ONNX Layer: /encoder4/block/block.0/block.0.0/fn/fn.0/weight_quantizer/DequantizeLinear]"
    },
    {
      "Name": "Reformatting CopyNode for Input Tensor 0 to PWN(PWN(PWN(PWN(PWN(/encoder4/block/block.0/block.0.0/fn/fn.1/Constant_output_0 + ONNXTRT_Broadcast_114, /encoder4/block/block.0/block.0.0/fn/fn.1/Div), /encoder4/block/block.0/block.0.0/fn/fn.1/Erf), /encoder4/block/block.0/block.0.0/fn/fn.1/Constant_1_output_0 + ONNXTRT_Broadcast_116 + /encoder4/block/block.0/block.0.0/fn/fn.1/Add), /encoder4/block/block.0/block.0.0/fn/fn.1/Mul), /encoder4/block/block.0/block.0.0/fn/fn.1/Constant_2_output_0 + ONNXTRT_Broadcast_118 + /encoder4/block/block.0/block.0.0/fn/fn.1/Mul_1)",
      "LayerType": "NoOp",
      "Inputs": [
        {
          "Name": "/encoder4/block/block.0/block.0.0/fn/fn.0/Conv_output_0",
          "Location": "Device",
          "Dimensions": [
            1,
            128,
            32,
            32
          ],
          "Format/Datatype": "Row major linear FP32"
        }
      ],
      "Outputs": [
        {
          "Name": "Reformatted Input Tensor 0 to PWN(PWN(PWN(PWN(PWN(/encoder4/block/block.0/block.0.0/fn/fn.1/Constant_output_0 + ONNXTRT_Broadcast_114, /encoder4/block/block.0/block.0.0/fn/fn.1/Div), /encoder4/block/block.0/block.0.0/fn/fn.1/Erf), /encoder4/block/block.0/block.0.0/fn/fn.1/Constant_1_output_0 + ONNXTRT_Broadcast_116 + /encoder4/block/block.0/block.0.0/fn/fn.1/Add), /encoder4/block/block.0/block.0.0/fn/fn.1/Mul), /encoder4/block/block.0/block.0.0/fn/fn.1/Constant_2_output_0 + ONNXTRT_Broadcast_118 + /encoder4/block/block.0/block.0.0/fn/fn.1/Mul_1)",
          "Location": "Device",
          "Dimensions": [
            1,
            128,
            32,
            32
          ],
          "Format/Datatype": "Row major linear FP32"
        }
      ],
      "TacticValue": "0x0000000000000000",
      "StreamId": 0,
      "Metadata": ""
    },
    {
      "Name": "PWN(PWN(PWN(PWN(PWN(/encoder4/block/block.0/block.0.0/fn/fn.1/Constant_output_0 + ONNXTRT_Broadcast_114, /encoder4/block/block.0/block.0.0/fn/fn.1/Div), /encoder4/block/block.0/block.0.0/fn/fn.1/Erf), /encoder4/block/block.0/block.0.0/fn/fn.1/Constant_1_output_0 + ONNXTRT_Broadcast_116 + /encoder4/block/block.0/block.0.0/fn/fn.1/Add), /encoder4/block/block.0/block.0.0/fn/fn.1/Mul), /encoder4/block/block.0/block.0.0/fn/fn.1/Constant_2_output_0 + ONNXTRT_Broadcast_118 + /encoder4/block/block.0/block.0.0/fn/fn.1/Mul_1)",
      "LayerType": "PointWiseV2",
      "Inputs": [
        {
          "Name": "Reformatted Input Tensor 0 to PWN(PWN(PWN(PWN(PWN(/encoder4/block/block.0/block.0.0/fn/fn.1/Constant_output_0 + ONNXTRT_Broadcast_114, /encoder4/block/block.0/block.0.0/fn/fn.1/Div), /encoder4/block/block.0/block.0.0/fn/fn.1/Erf), /encoder4/block/block.0/block.0.0/fn/fn.1/Constant_1_output_0 + ONNXTRT_Broadcast_116 + /encoder4/block/block.0/block.0.0/fn/fn.1/Add), /encoder4/block/block.0/block.0.0/fn/fn.1/Mul), /encoder4/block/block.0/block.0.0/fn/fn.1/Constant_2_output_0 + ONNXTRT_Broadcast_118 + /encoder4/block/block.0/block.0.0/fn/fn.1/Mul_1)",
          "Location": "Device",
          "Dimensions": [
            1,
            128,
            32,
            32
          ],
          "Format/Datatype": "Row major linear FP32"
        }
      ],
      "Outputs": [
        {
          "Name": "/encoder4/block/block.0/block.0.0/fn/fn.1/Mul_1_output_0",
          "Location": "Device",
          "Dimensions": [
            1,
            128,
            32,
            32
          ],
          "Format/Datatype": "Row major linear FP32"
        }
      ],
      "ParameterType": "PointWise",
      "ParameterSubType": "PointWiseExpression",
      "NbInputArgs": 1,
      "InputArgs": [
        "arg0"
      ],
      "NbOutputVars": 1,
      "OutputVars": [
        "var4"
      ],
      "NbParams": 0,
      "Params": [],
      "NbLiterals": 5,
      "Literals": [
        "1.414214e+00f",
        "0.000000e+00f",
        "1.000000e+00f",
        "0.000000e+00f",
        "5.000000e-01f"
      ],
      "NbOperations": 5,
      "Operations": [
        "auto const var0 = pwgen::iDiv(arg0, literal0);",
        "auto const var1 = pwgen::iErf(var0);",
        "auto const var2 = pwgen::iPlus(var1, literal2);",
        "auto const var3 = pwgen::iMul(arg0, var2);",
        "auto const var4 = pwgen::iMul(var3, literal4);"
      ],
      "TacticValue": "0x0000000000000005",
      "StreamId": 0,
      "Metadata": "[ONNX Layer: /encoder4/block/block.0/block.0.0/fn/fn.1/Div]\u001e[ONNX Layer: /encoder4/block/block.0/block.0.0/fn/fn.1/Erf]\u001e[ONNX Layer: /encoder4/block/block.0/block.0.0/fn/fn.1/Add]\u001e[ONNX Layer: /encoder4/block/block.0/block.0.0/fn/fn.1/Mul]\u001e[ONNX Layer: /encoder4/block/block.0/block.0.0/fn/fn.1/Mul_1]"
    },
    {
      "Name": "Reformatting CopyNode for Input Tensor 0 to /encoder4/block/block.0/block.0.0/fn/fn.2/BatchNormalization",
      "LayerType": "NoOp",
      "Inputs": [
        {
          "Name": "/encoder4/block/block.0/block.0.0/fn/fn.1/Mul_1_output_0",
          "Location": "Device",
          "Dimensions": [
            1,
            128,
            32,
            32
          ],
          "Format/Datatype": "Row major linear FP32"
        }
      ],
      "Outputs": [
        {
          "Name": "Reformatted Input Tensor 0 to /encoder4/block/block.0/block.0.0/fn/fn.2/BatchNormalization",
          "Location": "Device",
          "Dimensions": [
            1,
            128,
            32,
            32
          ],
          "Format/Datatype": "Row major linear FP32"
        }
      ],
      "TacticValue": "0x0000000000000000",
      "StreamId": 0,
      "Metadata": ""
    },
    {
      "Name": "/encoder4/block/block.0/block.0.0/fn/fn.2/BatchNormalization",
      "LayerType": "Scale",
      "Inputs": [
        {
          "Name": "Reformatted Input Tensor 0 to /encoder4/block/block.0/block.0.0/fn/fn.2/BatchNormalization",
          "Location": "Device",
          "Dimensions": [
            1,
            128,
            32,
            32
          ],
          "Format/Datatype": "Row major linear FP32"
        }
      ],
      "Outputs": [
        {
          "Name": "/encoder4/block/block.0/block.0.0/fn/fn.2/BatchNormalization_output_0",
          "Location": "Device",
          "Dimensions": [
            1,
            128,
            32,
            32
          ],
          "Format/Datatype": "Row major linear FP32"
        }
      ],
      "ParameterType": "Scale",
      "Mode": "CHANNEL",
      "Shift": {
        "Type": "Float",
        "Count": 128
      },
      "Scale": {
        "Type": "Float",
        "Count": 128
      },
      "Power": {
        "Type": "Float",
        "Count": 0
      },
      "Activation": "NONE",
      "ChannelAxis": 1,
      "TacticValue": "0x0000000000000000",
      "StreamId": 0,
      "Metadata": "[ONNX Layer: /encoder4/block/block.0/block.0.0/fn/fn.2/BatchNormalization]"
    },
    {
      "Name": "PWN(/encoder4/block/block.0/block.0.0/Add)",
      "LayerType": "PointWiseV2",
      "Inputs": [
        {
          "Name": "/encoder4/block/block.0/block.0.0/fn/fn.2/BatchNormalization_output_0",
          "Location": "Device",
          "Dimensions": [
            1,
            128,
            32,
            32
          ],
          "Format/Datatype": "Row major linear FP32"
        },
        {
          "Name": "/Maxpool_2/MaxPool_output_0_clone_1",
          "Location": "Device",
          "Dimensions": [
            1,
            128,
            32,
            32
          ],
          "Format/Datatype": "Row major linear FP32"
        }
      ],
      "Outputs": [
        {
          "Name": "/encoder4/block/block.0/block.0.1/input_quantizer/QuantizeLinear_output_0",
          "Location": "Device",
          "Dimensions": [
            1,
            128,
            32,
            32
          ],
          "Format/Datatype": "Row major Int8 format"
        }
      ],
      "ParameterType": "PointWise",
      "ParameterSubType": "PointWiseExpression",
      "NbInputArgs": 2,
      "InputArgs": [
        "arg0",
        "arg1"
      ],
      "NbOutputVars": 1,
      "OutputVars": [
        "var0"
      ],
      "NbParams": 0,
      "Params": [],
      "NbLiterals": 0,
      "Literals": [],
      "NbOperations": 1,
      "Operations": [
        "auto const var0 = pwgen::iPlus(arg0, arg1);"
      ],
      "TacticValue": "0x0000000000000008",
      "StreamId": 0,
      "Metadata": "[ONNX Layer: /encoder4/block/block.0/block.0.0/Add]\u001e[ONNX Layer: /encoder4/block/block.0/block.0.1/input_quantizer/QuantizeLinear]"
    },
    {
      "Name": "Reformatting CopyNode for Input Tensor 0 to encoder4.block.0.1.weight + /encoder4/block/block.0/block.0.1/weight_quantizer/QuantizeLinear + /encoder4/block/block.0/block.0.1/Conv + PWN(PWN(PWN(PWN(PWN(/encoder4/block/block.0/block.0.2/Constant_output_0 + ONNXTRT_Broadcast_124, /encoder4/block/block.0/block.0.2/Div), /encoder4/block/block.0/block.0.2/Erf), /encoder4/block/block.0/block.0.2/Constant_1_output_0 + ONNXTRT_Broadcast_126 + /encoder4/block/block.0/block.0.2/Add), /encoder4/block/block.0/block.0.2/Mul), /encoder4/block/block.0/block.0.2/Constant_2_output_0 + ONNXTRT_Broadcast_128 + /encoder4/block/block.0/block.0.2/Mul_1)",
      "LayerType": "Reformat",
      "Inputs": [
        {
          "Name": "/encoder4/block/block.0/block.0.1/input_quantizer/QuantizeLinear_output_0",
          "Location": "Device",
          "Dimensions": [
            1,
            128,
            32,
            32
          ],
          "Format/Datatype": "Row major Int8 format"
        }
      ],
      "Outputs": [
        {
          "Name": "Reformatted Input Tensor 0 to encoder4.block.0.1.weight + /encoder4/block/block.0/block.0.1/weight_quantizer/QuantizeLinear + /encoder4/block/block.0/block.0.1/Conv + PWN(PWN(PWN(PWN(PWN(/encoder4/block/block.0/block.0.2/Constant_output_0 + ONNXTRT_Broadcast_124, /encoder4/block/block.0/block.0.2/Div), /encoder4/block/block.0/block.0.2/Erf), /encoder4/block/block.0/block.0.2/Constant_1_output_0 + ONNXTRT_Broadcast_126 + /encoder4/block/block.0/block.0.2/Add), /encoder4/block/block.0/block.0.2/Mul), /encoder4/block/block.0/block.0.2/Constant_2_output_0 + ONNXTRT_Broadcast_128 + /encoder4/block/block.0/block.0.2/Mul_1)",
          "Location": "Device",
          "Dimensions": [
            1,
            128,
            32,
            32
          ],
          "Format/Datatype": "Four wide channel vectorized row major Int8 format"
        }
      ],
      "ParameterType": "Reformat",
      "Origin": "REFORMAT",
      "TacticValue": "0x0000000000000000",
      "StreamId": 0,
      "Metadata": ""
    },
    {
      "Name": "encoder4.block.0.1.weight + /encoder4/block/block.0/block.0.1/weight_quantizer/QuantizeLinear + /encoder4/block/block.0/block.0.1/Conv + PWN(PWN(PWN(PWN(PWN(/encoder4/block/block.0/block.0.2/Constant_output_0 + ONNXTRT_Broadcast_124, /encoder4/block/block.0/block.0.2/Div), /encoder4/block/block.0/block.0.2/Erf), /encoder4/block/block.0/block.0.2/Constant_1_output_0 + ONNXTRT_Broadcast_126 + /encoder4/block/block.0/block.0.2/Add), /encoder4/block/block.0/block.0.2/Mul), /encoder4/block/block.0/block.0.2/Constant_2_output_0 + ONNXTRT_Broadcast_128 + /encoder4/block/block.0/block.0.2/Mul_1)",
      "LayerType": "CaskConvolution",
      "Inputs": [
        {
          "Name": "Reformatted Input Tensor 0 to encoder4.block.0.1.weight + /encoder4/block/block.0/block.0.1/weight_quantizer/QuantizeLinear + /encoder4/block/block.0/block.0.1/Conv + PWN(PWN(PWN(PWN(PWN(/encoder4/block/block.0/block.0.2/Constant_output_0 + ONNXTRT_Broadcast_124, /encoder4/block/block.0/block.0.2/Div), /encoder4/block/block.0/block.0.2/Erf), /encoder4/block/block.0/block.0.2/Constant_1_output_0 + ONNXTRT_Broadcast_126 + /encoder4/block/block.0/block.0.2/Add), /encoder4/block/block.0/block.0.2/Mul), /encoder4/block/block.0/block.0.2/Constant_2_output_0 + ONNXTRT_Broadcast_128 + /encoder4/block/block.0/block.0.2/Mul_1)",
          "Location": "Device",
          "Dimensions": [
            1,
            128,
            32,
            32
          ],
          "Format/Datatype": "Four wide channel vectorized row major Int8 format"
        }
      ],
      "Outputs": [
        {
          "Name": "/encoder4/block/block.0/block.0.2/Mul_1_output_0",
          "Location": "Device",
          "Dimensions": [
            1,
            512,
            32,
            32
          ],
          "Format/Datatype": "Row major linear FP32"
        }
      ],
      "ParameterType": "Convolution",
      "Kernel": [
        1,
        1
      ],
      "PaddingMode": "kEXPLICIT_ROUND_DOWN",
      "PrePadding": [
        0,
        0
      ],
      "PostPadding": [
        0,
        0
      ],
      "Stride": [
        1,
        1
      ],
      "Dilation": [
        1,
        1
      ],
      "OutMaps": 512,
      "Groups": 1,
      "Weights": {
        "Type": "Int8",
        "Count": 65536
      },
      "Bias": {
        "Type": "Float",
        "Count": 512
      },
      "HasBias": 1,
      "HasReLU": 0,
      "HasSparseWeights": 0,
      "HasDynamicFilter": 0,
      "HasDynamicBias": 0,
      "HasResidual": 0,
      "ConvXAsActInputIdx": -1,
      "BiasAsActInputIdx": -1,
      "ResAsActInputIdx": -1,
      "Activation": "GENERIC",
      "ParameterSubType": "PointWiseExpression",
      "NbPointWiseExpressionInputArgs": 1,
      "PointWiseExpressionInputArgs": [
        "arg0"
      ],
      "NbPointWiseExpressionOutputVars": 1,
      "PointWiseExpressionOutputVars": [
        "var4"
      ],
      "NbPointWiseExpressionParams": 0,
      "PointWiseExpressionParams": [],
      "NbPointWiseExpressionLiterals": 5,
      "PointWiseExpressionLiterals": [
        "1.414214e+00f",
        "0.000000e+00f",
        "1.000000e+00f",
        "0.000000e+00f",
        "5.000000e-01f"
      ],
      "NbPointWiseExpressionOperations": 5,
      "PointWiseExpressionOperations": [
        "auto const var0 = pwgen::iDiv(arg0, literal0);",
        "auto const var1 = pwgen::iErf(var0);",
        "auto const var2 = pwgen::iPlus(var1, literal2);",
        "auto const var3 = pwgen::iMul(arg0, var2);",
        "auto const var4 = pwgen::iMul(var3, literal4);"
      ],
      "TacticName": "volta_fp32_icudnn_int8x4_128x32_relu_xregs_interior_nn_v1",
      "TacticValue": "0x980f6ae6834453a3",
      "StreamId": 0,
      "Metadata": "[ONNX Layer: /encoder4/block/block.0/block.0.1/weight_quantizer/QuantizeLinear]\u001e[ONNX Layer: /encoder4/block/block.0/block.0.1/Conv]\u001e[ONNX Layer: /encoder4/block/block.0/block.0.2/Div]\u001e[ONNX Layer: /encoder4/block/block.0/block.0.2/Erf]\u001e[ONNX Layer: /encoder4/block/block.0/block.0.2/Add]\u001e[ONNX Layer: /encoder4/block/block.0/block.0.2/Mul]\u001e[ONNX Layer: /encoder4/block/block.0/block.0.2/Mul_1]\u001e[ONNX Layer: /encoder4/block/block.0/block.0.1/input_quantizer/DequantizeLinear]\u001e[ONNX Layer: /encoder4/block/block.0/block.0.1/weight_quantizer/DequantizeLinear]"
    },
    {
      "Name": "/encoder4/block/block.0/block.0.3/BatchNormalization",
      "LayerType": "Scale",
      "Inputs": [
        {
          "Name": "/encoder4/block/block.0/block.0.2/Mul_1_output_0",
          "Location": "Device",
          "Dimensions": [
            1,
            512,
            32,
            32
          ],
          "Format/Datatype": "Row major linear FP32"
        }
      ],
      "Outputs": [
        {
          "Name": "/encoder4/block/block.0/block.0.3/BatchNormalization_output_0",
          "Location": "Device",
          "Dimensions": [
            1,
            512,
            32,
            32
          ],
          "Format/Datatype": "Row major linear FP32"
        }
      ],
      "ParameterType": "Scale",
      "Mode": "CHANNEL",
      "Shift": {
        "Type": "Float",
        "Count": 512
      },
      "Scale": {
        "Type": "Float",
        "Count": 512
      },
      "Power": {
        "Type": "Float",
        "Count": 0
      },
      "Activation": "NONE",
      "ChannelAxis": 1,
      "TacticValue": "0x0000000000000000",
      "StreamId": 0,
      "Metadata": "[ONNX Layer: /encoder4/block/block.0/block.0.3/BatchNormalization]"
    },
    {
      "Name": "/encoder4/block/block.0/block.0.4/input_quantizer/QuantizeLinear",
      "LayerType": "Reformat",
      "Inputs": [
        {
          "Name": "/encoder4/block/block.0/block.0.3/BatchNormalization_output_0",
          "Location": "Device",
          "Dimensions": [
            1,
            512,
            32,
            32
          ],
          "Format/Datatype": "Row major linear FP32"
        }
      ],
      "Outputs": [
        {
          "Name": "/encoder4/block/block.0/block.0.4/input_quantizer/QuantizeLinear_output_0",
          "Location": "Device",
          "Dimensions": [
            1,
            512,
            32,
            32
          ],
          "Format/Datatype": "Four wide channel vectorized row major Int8 format"
        }
      ],
      "ParameterType": "Reformat",
      "Origin": "QDQ",
      "TacticValue": "0x0000000000000000",
      "StreamId": 0,
      "Metadata": "[ONNX Layer: /encoder4/block/block.0/block.0.4/input_quantizer/QuantizeLinear]"
    },
    {
      "Name": "encoder4.block.0.4.weight + /encoder4/block/block.0/block.0.4/weight_quantizer/QuantizeLinear + /encoder4/block/block.0/block.0.4/Conv + PWN(PWN(PWN(PWN(PWN(/encoder4/block/block.0/block.0.5/Constant_output_0 + ONNXTRT_Broadcast_134, /encoder4/block/block.0/block.0.5/Div), /encoder4/block/block.0/block.0.5/Erf), /encoder4/block/block.0/block.0.5/Constant_1_output_0 + ONNXTRT_Broadcast_136 + /encoder4/block/block.0/block.0.5/Add), /encoder4/block/block.0/block.0.5/Mul), /encoder4/block/block.0/block.0.5/Constant_2_output_0 + ONNXTRT_Broadcast_138 + /encoder4/block/block.0/block.0.5/Mul_1)",
      "LayerType": "CaskConvolution",
      "Inputs": [
        {
          "Name": "/encoder4/block/block.0/block.0.4/input_quantizer/QuantizeLinear_output_0",
          "Location": "Device",
          "Dimensions": [
            1,
            512,
            32,
            32
          ],
          "Format/Datatype": "Four wide channel vectorized row major Int8 format"
        }
      ],
      "Outputs": [
        {
          "Name": "/encoder4/block/block.0/block.0.5/Mul_1_output_0",
          "Location": "Device",
          "Dimensions": [
            1,
            128,
            32,
            32
          ],
          "Format/Datatype": "Row major linear FP32"
        }
      ],
      "ParameterType": "Convolution",
      "Kernel": [
        1,
        1
      ],
      "PaddingMode": "kEXPLICIT_ROUND_DOWN",
      "PrePadding": [
        0,
        0
      ],
      "PostPadding": [
        0,
        0
      ],
      "Stride": [
        1,
        1
      ],
      "Dilation": [
        1,
        1
      ],
      "OutMaps": 128,
      "Groups": 1,
      "Weights": {
        "Type": "Int8",
        "Count": 65536
      },
      "Bias": {
        "Type": "Float",
        "Count": 128
      },
      "HasBias": 1,
      "HasReLU": 0,
      "HasSparseWeights": 0,
      "HasDynamicFilter": 0,
      "HasDynamicBias": 0,
      "HasResidual": 0,
      "ConvXAsActInputIdx": -1,
      "BiasAsActInputIdx": -1,
      "ResAsActInputIdx": -1,
      "Activation": "GENERIC",
      "ParameterSubType": "PointWiseExpression",
      "NbPointWiseExpressionInputArgs": 1,
      "PointWiseExpressionInputArgs": [
        "arg0"
      ],
      "NbPointWiseExpressionOutputVars": 1,
      "PointWiseExpressionOutputVars": [
        "var4"
      ],
      "NbPointWiseExpressionParams": 0,
      "PointWiseExpressionParams": [],
      "NbPointWiseExpressionLiterals": 5,
      "PointWiseExpressionLiterals": [
        "1.414214e+00f",
        "0.000000e+00f",
        "1.000000e+00f",
        "0.000000e+00f",
        "5.000000e-01f"
      ],
      "NbPointWiseExpressionOperations": 5,
      "PointWiseExpressionOperations": [
        "auto const var0 = pwgen::iDiv(arg0, literal0);",
        "auto const var1 = pwgen::iErf(var0);",
        "auto const var2 = pwgen::iPlus(var1, literal2);",
        "auto const var3 = pwgen::iMul(arg0, var2);",
        "auto const var4 = pwgen::iMul(var3, literal4);"
      ],
      "TacticName": "volta_fp32_icudnn_int8x4_128x64_relu_interior_nn_v1",
      "TacticValue": "0x9207ee1605554a97",
      "StreamId": 0,
      "Metadata": "[ONNX Layer: /encoder4/block/block.0/block.0.4/weight_quantizer/QuantizeLinear]\u001e[ONNX Layer: /encoder4/block/block.0/block.0.4/Conv]\u001e[ONNX Layer: /encoder4/block/block.0/block.0.5/Div]\u001e[ONNX Layer: /encoder4/block/block.0/block.0.5/Erf]\u001e[ONNX Layer: /encoder4/block/block.0/block.0.5/Add]\u001e[ONNX Layer: /encoder4/block/block.0/block.0.5/Mul]\u001e[ONNX Layer: /encoder4/block/block.0/block.0.5/Mul_1]\u001e[ONNX Layer: /encoder4/block/block.0/block.0.4/input_quantizer/DequantizeLinear]\u001e[ONNX Layer: /encoder4/block/block.0/block.0.4/weight_quantizer/DequantizeLinear]"
    },
    {
      "Name": "/encoder4/block/block.0/block.0.6/BatchNormalization",
      "LayerType": "Scale",
      "Inputs": [
        {
          "Name": "/encoder4/block/block.0/block.0.5/Mul_1_output_0",
          "Location": "Device",
          "Dimensions": [
            1,
            128,
            32,
            32
          ],
          "Format/Datatype": "Row major linear FP32"
        }
      ],
      "Outputs": [
        {
          "Name": "/encoder4/block/block.0/block.0.6/BatchNormalization_output_0",
          "Location": "Device",
          "Dimensions": [
            1,
            128,
            32,
            32
          ],
          "Format/Datatype": "Row major linear FP32"
        }
      ],
      "ParameterType": "Scale",
      "Mode": "CHANNEL",
      "Shift": {
        "Type": "Float",
        "Count": 128
      },
      "Scale": {
        "Type": "Float",
        "Count": 128
      },
      "Power": {
        "Type": "Float",
        "Count": 0
      },
      "Activation": "NONE",
      "ChannelAxis": 1,
      "TacticValue": "0x0000000000000000",
      "StreamId": 0,
      "Metadata": "[ONNX Layer: /encoder4/block/block.0/block.0.6/BatchNormalization]"
    },
    {
      "Name": "/encoder4/block/block.1/block.1.0/fn/fn.0/input_quantizer/QuantizeLinear",
      "LayerType": "Reformat",
      "Inputs": [
        {
          "Name": "/encoder4/block/block.0/block.0.6/BatchNormalization_output_0",
          "Location": "Device",
          "Dimensions": [
            1,
            128,
            32,
            32
          ],
          "Format/Datatype": "Row major linear FP32"
        }
      ],
      "Outputs": [
        {
          "Name": "/encoder4/block/block.1/block.1.0/fn/fn.0/input_quantizer/QuantizeLinear_output_0",
          "Location": "Device",
          "Dimensions": [
            1,
            128,
            32,
            32
          ],
          "Format/Datatype": "Four wide channel vectorized row major Int8 format"
        }
      ],
      "ParameterType": "Reformat",
      "Origin": "QDQ",
      "TacticValue": "0x0000000000000000",
      "StreamId": 0,
      "Metadata": "[ONNX Layer: /encoder4/block/block.1/block.1.0/fn/fn.0/input_quantizer/QuantizeLinear]"
    },
    {
      "Name": "encoder4.block.1.0.fn.0.weight + /encoder4/block/block.1/block.1.0/fn/fn.0/weight_quantizer/QuantizeLinear + /encoder4/block/block.1/block.1.0/fn/fn.0/Conv",
      "LayerType": "CaskConvolution",
      "Inputs": [
        {
          "Name": "/encoder4/block/block.1/block.1.0/fn/fn.0/input_quantizer/QuantizeLinear_output_0",
          "Location": "Device",
          "Dimensions": [
            1,
            128,
            32,
            32
          ],
          "Format/Datatype": "Four wide channel vectorized row major Int8 format"
        }
      ],
      "Outputs": [
        {
          "Name": "/encoder4/block/block.1/block.1.0/fn/fn.0/Conv_output_0",
          "Location": "Device",
          "Dimensions": [
            1,
            128,
            32,
            32
          ],
          "Format/Datatype": "Row major linear FP32"
        }
      ],
      "ParameterType": "Convolution",
      "Kernel": [
        7,
        7
      ],
      "PaddingMode": "kEXPLICIT_ROUND_DOWN",
      "PrePadding": [
        3,
        3
      ],
      "PostPadding": [
        3,
        3
      ],
      "Stride": [
        1,
        1
      ],
      "Dilation": [
        1,
        1
      ],
      "OutMaps": 128,
      "Groups": 128,
      "Weights": {
        "Type": "Int8",
        "Count": 6272
      },
      "Bias": {
        "Type": "Float",
        "Count": 128
      },
      "HasBias": 1,
      "HasReLU": 0,
      "HasSparseWeights": 0,
      "HasDynamicFilter": 0,
      "HasDynamicBias": 0,
      "HasResidual": 0,
      "ConvXAsActInputIdx": -1,
      "BiasAsActInputIdx": -1,
      "ResAsActInputIdx": -1,
      "Activation": "NONE",
      "TacticName": "sm61_xmma_convolution_trt_depthwise_i8_conv_int8ncxhw4_fp32nchw_int8kcrs_R1_S1_U1_V1_spv4",
      "TacticValue": "0xb1a8f619ca27370b",
      "StreamId": 0,
      "Metadata": "[ONNX Layer: /encoder4/block/block.1/block.1.0/fn/fn.0/weight_quantizer/QuantizeLinear]\u001e[ONNX Layer: /encoder4/block/block.1/block.1.0/fn/fn.0/Conv]\u001e[ONNX Layer: /encoder4/block/block.1/block.1.0/fn/fn.0/input_quantizer/DequantizeLinear]\u001e[ONNX Layer: /encoder4/block/block.1/block.1.0/fn/fn.0/weight_quantizer/DequantizeLinear]"
    },
    {
      "Name": "Reformatting CopyNode for Input Tensor 0 to PWN(PWN(PWN(PWN(PWN(/encoder4/block/block.1/block.1.0/fn/fn.1/Constant_output_0 + ONNXTRT_Broadcast_144, /encoder4/block/block.1/block.1.0/fn/fn.1/Div), /encoder4/block/block.1/block.1.0/fn/fn.1/Erf), /encoder4/block/block.1/block.1.0/fn/fn.1/Constant_1_output_0 + ONNXTRT_Broadcast_146 + /encoder4/block/block.1/block.1.0/fn/fn.1/Add), /encoder4/block/block.1/block.1.0/fn/fn.1/Mul), /encoder4/block/block.1/block.1.0/fn/fn.1/Constant_2_output_0 + ONNXTRT_Broadcast_148 + /encoder4/block/block.1/block.1.0/fn/fn.1/Mul_1)",
      "LayerType": "NoOp",
      "Inputs": [
        {
          "Name": "/encoder4/block/block.1/block.1.0/fn/fn.0/Conv_output_0",
          "Location": "Device",
          "Dimensions": [
            1,
            128,
            32,
            32
          ],
          "Format/Datatype": "Row major linear FP32"
        }
      ],
      "Outputs": [
        {
          "Name": "Reformatted Input Tensor 0 to PWN(PWN(PWN(PWN(PWN(/encoder4/block/block.1/block.1.0/fn/fn.1/Constant_output_0 + ONNXTRT_Broadcast_144, /encoder4/block/block.1/block.1.0/fn/fn.1/Div), /encoder4/block/block.1/block.1.0/fn/fn.1/Erf), /encoder4/block/block.1/block.1.0/fn/fn.1/Constant_1_output_0 + ONNXTRT_Broadcast_146 + /encoder4/block/block.1/block.1.0/fn/fn.1/Add), /encoder4/block/block.1/block.1.0/fn/fn.1/Mul), /encoder4/block/block.1/block.1.0/fn/fn.1/Constant_2_output_0 + ONNXTRT_Broadcast_148 + /encoder4/block/block.1/block.1.0/fn/fn.1/Mul_1)",
          "Location": "Device",
          "Dimensions": [
            1,
            128,
            32,
            32
          ],
          "Format/Datatype": "Row major linear FP32"
        }
      ],
      "TacticValue": "0x0000000000000000",
      "StreamId": 0,
      "Metadata": ""
    },
    {
      "Name": "PWN(PWN(PWN(PWN(PWN(/encoder4/block/block.1/block.1.0/fn/fn.1/Constant_output_0 + ONNXTRT_Broadcast_144, /encoder4/block/block.1/block.1.0/fn/fn.1/Div), /encoder4/block/block.1/block.1.0/fn/fn.1/Erf), /encoder4/block/block.1/block.1.0/fn/fn.1/Constant_1_output_0 + ONNXTRT_Broadcast_146 + /encoder4/block/block.1/block.1.0/fn/fn.1/Add), /encoder4/block/block.1/block.1.0/fn/fn.1/Mul), /encoder4/block/block.1/block.1.0/fn/fn.1/Constant_2_output_0 + ONNXTRT_Broadcast_148 + /encoder4/block/block.1/block.1.0/fn/fn.1/Mul_1)",
      "LayerType": "PointWiseV2",
      "Inputs": [
        {
          "Name": "Reformatted Input Tensor 0 to PWN(PWN(PWN(PWN(PWN(/encoder4/block/block.1/block.1.0/fn/fn.1/Constant_output_0 + ONNXTRT_Broadcast_144, /encoder4/block/block.1/block.1.0/fn/fn.1/Div), /encoder4/block/block.1/block.1.0/fn/fn.1/Erf), /encoder4/block/block.1/block.1.0/fn/fn.1/Constant_1_output_0 + ONNXTRT_Broadcast_146 + /encoder4/block/block.1/block.1.0/fn/fn.1/Add), /encoder4/block/block.1/block.1.0/fn/fn.1/Mul), /encoder4/block/block.1/block.1.0/fn/fn.1/Constant_2_output_0 + ONNXTRT_Broadcast_148 + /encoder4/block/block.1/block.1.0/fn/fn.1/Mul_1)",
          "Location": "Device",
          "Dimensions": [
            1,
            128,
            32,
            32
          ],
          "Format/Datatype": "Row major linear FP32"
        }
      ],
      "Outputs": [
        {
          "Name": "/encoder4/block/block.1/block.1.0/fn/fn.1/Mul_1_output_0",
          "Location": "Device",
          "Dimensions": [
            1,
            128,
            32,
            32
          ],
          "Format/Datatype": "Row major linear FP32"
        }
      ],
      "ParameterType": "PointWise",
      "ParameterSubType": "PointWiseExpression",
      "NbInputArgs": 1,
      "InputArgs": [
        "arg0"
      ],
      "NbOutputVars": 1,
      "OutputVars": [
        "var4"
      ],
      "NbParams": 0,
      "Params": [],
      "NbLiterals": 5,
      "Literals": [
        "1.414214e+00f",
        "0.000000e+00f",
        "1.000000e+00f",
        "0.000000e+00f",
        "5.000000e-01f"
      ],
      "NbOperations": 5,
      "Operations": [
        "auto const var0 = pwgen::iDiv(arg0, literal0);",
        "auto const var1 = pwgen::iErf(var0);",
        "auto const var2 = pwgen::iPlus(var1, literal2);",
        "auto const var3 = pwgen::iMul(arg0, var2);",
        "auto const var4 = pwgen::iMul(var3, literal4);"
      ],
      "TacticValue": "0x0000000000000005",
      "StreamId": 0,
      "Metadata": "[ONNX Layer: /encoder4/block/block.1/block.1.0/fn/fn.1/Div]\u001e[ONNX Layer: /encoder4/block/block.1/block.1.0/fn/fn.1/Erf]\u001e[ONNX Layer: /encoder4/block/block.1/block.1.0/fn/fn.1/Add]\u001e[ONNX Layer: /encoder4/block/block.1/block.1.0/fn/fn.1/Mul]\u001e[ONNX Layer: /encoder4/block/block.1/block.1.0/fn/fn.1/Mul_1]"
    },
    {
      "Name": "Reformatting CopyNode for Input Tensor 0 to /encoder4/block/block.1/block.1.0/fn/fn.2/BatchNormalization",
      "LayerType": "NoOp",
      "Inputs": [
        {
          "Name": "/encoder4/block/block.1/block.1.0/fn/fn.1/Mul_1_output_0",
          "Location": "Device",
          "Dimensions": [
            1,
            128,
            32,
            32
          ],
          "Format/Datatype": "Row major linear FP32"
        }
      ],
      "Outputs": [
        {
          "Name": "Reformatted Input Tensor 0 to /encoder4/block/block.1/block.1.0/fn/fn.2/BatchNormalization",
          "Location": "Device",
          "Dimensions": [
            1,
            128,
            32,
            32
          ],
          "Format/Datatype": "Row major linear FP32"
        }
      ],
      "TacticValue": "0x0000000000000000",
      "StreamId": 0,
      "Metadata": ""
    },
    {
      "Name": "/encoder4/block/block.1/block.1.0/fn/fn.2/BatchNormalization",
      "LayerType": "Scale",
      "Inputs": [
        {
          "Name": "Reformatted Input Tensor 0 to /encoder4/block/block.1/block.1.0/fn/fn.2/BatchNormalization",
          "Location": "Device",
          "Dimensions": [
            1,
            128,
            32,
            32
          ],
          "Format/Datatype": "Row major linear FP32"
        }
      ],
      "Outputs": [
        {
          "Name": "/encoder4/block/block.1/block.1.0/fn/fn.2/BatchNormalization_output_0",
          "Location": "Device",
          "Dimensions": [
            1,
            128,
            32,
            32
          ],
          "Format/Datatype": "Row major linear FP32"
        }
      ],
      "ParameterType": "Scale",
      "Mode": "CHANNEL",
      "Shift": {
        "Type": "Float",
        "Count": 128
      },
      "Scale": {
        "Type": "Float",
        "Count": 128
      },
      "Power": {
        "Type": "Float",
        "Count": 0
      },
      "Activation": "NONE",
      "ChannelAxis": 1,
      "TacticValue": "0x0000000000000000",
      "StreamId": 0,
      "Metadata": "[ONNX Layer: /encoder4/block/block.1/block.1.0/fn/fn.2/BatchNormalization]"
    },
    {
      "Name": "PWN(/encoder4/block/block.1/block.1.0/Add)",
      "LayerType": "PointWiseV2",
      "Inputs": [
        {
          "Name": "/encoder4/block/block.1/block.1.0/fn/fn.2/BatchNormalization_output_0",
          "Location": "Device",
          "Dimensions": [
            1,
            128,
            32,
            32
          ],
          "Format/Datatype": "Row major linear FP32"
        },
        {
          "Name": "/encoder4/block/block.0/block.0.6/BatchNormalization_output_0",
          "Location": "Device",
          "Dimensions": [
            1,
            128,
            32,
            32
          ],
          "Format/Datatype": "Row major linear FP32"
        }
      ],
      "Outputs": [
        {
          "Name": "/encoder4/block/block.1/block.1.1/input_quantizer/QuantizeLinear_output_0",
          "Location": "Device",
          "Dimensions": [
            1,
            128,
            32,
            32
          ],
          "Format/Datatype": "Row major Int8 format"
        }
      ],
      "ParameterType": "PointWise",
      "ParameterSubType": "PointWiseExpression",
      "NbInputArgs": 2,
      "InputArgs": [
        "arg0",
        "arg1"
      ],
      "NbOutputVars": 1,
      "OutputVars": [
        "var0"
      ],
      "NbParams": 0,
      "Params": [],
      "NbLiterals": 0,
      "Literals": [],
      "NbOperations": 1,
      "Operations": [
        "auto const var0 = pwgen::iPlus(arg0, arg1);"
      ],
      "TacticValue": "0x0000000000000008",
      "StreamId": 0,
      "Metadata": "[ONNX Layer: /encoder4/block/block.1/block.1.0/Add]\u001e[ONNX Layer: /encoder4/block/block.1/block.1.1/input_quantizer/QuantizeLinear]"
    },
    {
      "Name": "Reformatting CopyNode for Input Tensor 0 to encoder4.block.1.1.weight + /encoder4/block/block.1/block.1.1/weight_quantizer/QuantizeLinear + /encoder4/block/block.1/block.1.1/Conv + PWN(PWN(PWN(PWN(PWN(/encoder4/block/block.1/block.1.2/Constant_output_0 + ONNXTRT_Broadcast_154, /encoder4/block/block.1/block.1.2/Div), /encoder4/block/block.1/block.1.2/Erf), /encoder4/block/block.1/block.1.2/Constant_1_output_0 + ONNXTRT_Broadcast_156 + /encoder4/block/block.1/block.1.2/Add), /encoder4/block/block.1/block.1.2/Mul), /encoder4/block/block.1/block.1.2/Constant_2_output_0 + ONNXTRT_Broadcast_158 + /encoder4/block/block.1/block.1.2/Mul_1)",
      "LayerType": "Reformat",
      "Inputs": [
        {
          "Name": "/encoder4/block/block.1/block.1.1/input_quantizer/QuantizeLinear_output_0",
          "Location": "Device",
          "Dimensions": [
            1,
            128,
            32,
            32
          ],
          "Format/Datatype": "Row major Int8 format"
        }
      ],
      "Outputs": [
        {
          "Name": "Reformatted Input Tensor 0 to encoder4.block.1.1.weight + /encoder4/block/block.1/block.1.1/weight_quantizer/QuantizeLinear + /encoder4/block/block.1/block.1.1/Conv + PWN(PWN(PWN(PWN(PWN(/encoder4/block/block.1/block.1.2/Constant_output_0 + ONNXTRT_Broadcast_154, /encoder4/block/block.1/block.1.2/Div), /encoder4/block/block.1/block.1.2/Erf), /encoder4/block/block.1/block.1.2/Constant_1_output_0 + ONNXTRT_Broadcast_156 + /encoder4/block/block.1/block.1.2/Add), /encoder4/block/block.1/block.1.2/Mul), /encoder4/block/block.1/block.1.2/Constant_2_output_0 + ONNXTRT_Broadcast_158 + /encoder4/block/block.1/block.1.2/Mul_1)",
          "Location": "Device",
          "Dimensions": [
            1,
            128,
            32,
            32
          ],
          "Format/Datatype": "Four wide channel vectorized row major Int8 format"
        }
      ],
      "ParameterType": "Reformat",
      "Origin": "REFORMAT",
      "TacticValue": "0x0000000000000000",
      "StreamId": 0,
      "Metadata": ""
    },
    {
      "Name": "encoder4.block.1.1.weight + /encoder4/block/block.1/block.1.1/weight_quantizer/QuantizeLinear + /encoder4/block/block.1/block.1.1/Conv + PWN(PWN(PWN(PWN(PWN(/encoder4/block/block.1/block.1.2/Constant_output_0 + ONNXTRT_Broadcast_154, /encoder4/block/block.1/block.1.2/Div), /encoder4/block/block.1/block.1.2/Erf), /encoder4/block/block.1/block.1.2/Constant_1_output_0 + ONNXTRT_Broadcast_156 + /encoder4/block/block.1/block.1.2/Add), /encoder4/block/block.1/block.1.2/Mul), /encoder4/block/block.1/block.1.2/Constant_2_output_0 + ONNXTRT_Broadcast_158 + /encoder4/block/block.1/block.1.2/Mul_1)",
      "LayerType": "CaskConvolution",
      "Inputs": [
        {
          "Name": "Reformatted Input Tensor 0 to encoder4.block.1.1.weight + /encoder4/block/block.1/block.1.1/weight_quantizer/QuantizeLinear + /encoder4/block/block.1/block.1.1/Conv + PWN(PWN(PWN(PWN(PWN(/encoder4/block/block.1/block.1.2/Constant_output_0 + ONNXTRT_Broadcast_154, /encoder4/block/block.1/block.1.2/Div), /encoder4/block/block.1/block.1.2/Erf), /encoder4/block/block.1/block.1.2/Constant_1_output_0 + ONNXTRT_Broadcast_156 + /encoder4/block/block.1/block.1.2/Add), /encoder4/block/block.1/block.1.2/Mul), /encoder4/block/block.1/block.1.2/Constant_2_output_0 + ONNXTRT_Broadcast_158 + /encoder4/block/block.1/block.1.2/Mul_1)",
          "Location": "Device",
          "Dimensions": [
            1,
            128,
            32,
            32
          ],
          "Format/Datatype": "Four wide channel vectorized row major Int8 format"
        }
      ],
      "Outputs": [
        {
          "Name": "/encoder4/block/block.1/block.1.2/Mul_1_output_0",
          "Location": "Device",
          "Dimensions": [
            1,
            512,
            32,
            32
          ],
          "Format/Datatype": "Row major linear FP32"
        }
      ],
      "ParameterType": "Convolution",
      "Kernel": [
        1,
        1
      ],
      "PaddingMode": "kEXPLICIT_ROUND_DOWN",
      "PrePadding": [
        0,
        0
      ],
      "PostPadding": [
        0,
        0
      ],
      "Stride": [
        1,
        1
      ],
      "Dilation": [
        1,
        1
      ],
      "OutMaps": 512,
      "Groups": 1,
      "Weights": {
        "Type": "Int8",
        "Count": 65536
      },
      "Bias": {
        "Type": "Float",
        "Count": 512
      },
      "HasBias": 1,
      "HasReLU": 0,
      "HasSparseWeights": 0,
      "HasDynamicFilter": 0,
      "HasDynamicBias": 0,
      "HasResidual": 0,
      "ConvXAsActInputIdx": -1,
      "BiasAsActInputIdx": -1,
      "ResAsActInputIdx": -1,
      "Activation": "GENERIC",
      "ParameterSubType": "PointWiseExpression",
      "NbPointWiseExpressionInputArgs": 1,
      "PointWiseExpressionInputArgs": [
        "arg0"
      ],
      "NbPointWiseExpressionOutputVars": 1,
      "PointWiseExpressionOutputVars": [
        "var4"
      ],
      "NbPointWiseExpressionParams": 0,
      "PointWiseExpressionParams": [],
      "NbPointWiseExpressionLiterals": 5,
      "PointWiseExpressionLiterals": [
        "1.414214e+00f",
        "0.000000e+00f",
        "1.000000e+00f",
        "0.000000e+00f",
        "5.000000e-01f"
      ],
      "NbPointWiseExpressionOperations": 5,
      "PointWiseExpressionOperations": [
        "auto const var0 = pwgen::iDiv(arg0, literal0);",
        "auto const var1 = pwgen::iErf(var0);",
        "auto const var2 = pwgen::iPlus(var1, literal2);",
        "auto const var3 = pwgen::iMul(arg0, var2);",
        "auto const var4 = pwgen::iMul(var3, literal4);"
      ],
      "TacticName": "volta_fp32_icudnn_int8x4_128x32_relu_xregs_interior_nn_v1",
      "TacticValue": "0x980f6ae6834453a3",
      "StreamId": 0,
      "Metadata": "[ONNX Layer: /encoder4/block/block.1/block.1.1/weight_quantizer/QuantizeLinear]\u001e[ONNX Layer: /encoder4/block/block.1/block.1.1/Conv]\u001e[ONNX Layer: /encoder4/block/block.1/block.1.2/Div]\u001e[ONNX Layer: /encoder4/block/block.1/block.1.2/Erf]\u001e[ONNX Layer: /encoder4/block/block.1/block.1.2/Add]\u001e[ONNX Layer: /encoder4/block/block.1/block.1.2/Mul]\u001e[ONNX Layer: /encoder4/block/block.1/block.1.2/Mul_1]\u001e[ONNX Layer: /encoder4/block/block.1/block.1.1/input_quantizer/DequantizeLinear]\u001e[ONNX Layer: /encoder4/block/block.1/block.1.1/weight_quantizer/DequantizeLinear]"
    },
    {
      "Name": "/encoder4/block/block.1/block.1.3/BatchNormalization",
      "LayerType": "Scale",
      "Inputs": [
        {
          "Name": "/encoder4/block/block.1/block.1.2/Mul_1_output_0",
          "Location": "Device",
          "Dimensions": [
            1,
            512,
            32,
            32
          ],
          "Format/Datatype": "Row major linear FP32"
        }
      ],
      "Outputs": [
        {
          "Name": "/encoder4/block/block.1/block.1.3/BatchNormalization_output_0",
          "Location": "Device",
          "Dimensions": [
            1,
            512,
            32,
            32
          ],
          "Format/Datatype": "Row major linear FP32"
        }
      ],
      "ParameterType": "Scale",
      "Mode": "CHANNEL",
      "Shift": {
        "Type": "Float",
        "Count": 512
      },
      "Scale": {
        "Type": "Float",
        "Count": 512
      },
      "Power": {
        "Type": "Float",
        "Count": 0
      },
      "Activation": "NONE",
      "ChannelAxis": 1,
      "TacticValue": "0x0000000000000000",
      "StreamId": 0,
      "Metadata": "[ONNX Layer: /encoder4/block/block.1/block.1.3/BatchNormalization]"
    },
    {
      "Name": "/encoder4/block/block.1/block.1.4/input_quantizer/QuantizeLinear",
      "LayerType": "Reformat",
      "Inputs": [
        {
          "Name": "/encoder4/block/block.1/block.1.3/BatchNormalization_output_0",
          "Location": "Device",
          "Dimensions": [
            1,
            512,
            32,
            32
          ],
          "Format/Datatype": "Row major linear FP32"
        }
      ],
      "Outputs": [
        {
          "Name": "/encoder4/block/block.1/block.1.4/input_quantizer/QuantizeLinear_output_0",
          "Location": "Device",
          "Dimensions": [
            1,
            512,
            32,
            32
          ],
          "Format/Datatype": "Four wide channel vectorized row major Int8 format"
        }
      ],
      "ParameterType": "Reformat",
      "Origin": "QDQ",
      "TacticValue": "0x0000000000000000",
      "StreamId": 0,
      "Metadata": "[ONNX Layer: /encoder4/block/block.1/block.1.4/input_quantizer/QuantizeLinear]"
    },
    {
      "Name": "encoder4.block.1.4.weight + /encoder4/block/block.1/block.1.4/weight_quantizer/QuantizeLinear + /encoder4/block/block.1/block.1.4/Conv + PWN(PWN(PWN(PWN(PWN(/encoder4/block/block.1/block.1.5/Constant_output_0 + ONNXTRT_Broadcast_164, /encoder4/block/block.1/block.1.5/Div), /encoder4/block/block.1/block.1.5/Erf), /encoder4/block/block.1/block.1.5/Constant_1_output_0 + ONNXTRT_Broadcast_166 + /encoder4/block/block.1/block.1.5/Add), /encoder4/block/block.1/block.1.5/Mul), /encoder4/block/block.1/block.1.5/Constant_2_output_0 + ONNXTRT_Broadcast_168 + /encoder4/block/block.1/block.1.5/Mul_1)",
      "LayerType": "CaskConvolution",
      "Inputs": [
        {
          "Name": "/encoder4/block/block.1/block.1.4/input_quantizer/QuantizeLinear_output_0",
          "Location": "Device",
          "Dimensions": [
            1,
            512,
            32,
            32
          ],
          "Format/Datatype": "Four wide channel vectorized row major Int8 format"
        }
      ],
      "Outputs": [
        {
          "Name": "/encoder4/block/block.1/block.1.5/Mul_1_output_0",
          "Location": "Device",
          "Dimensions": [
            1,
            128,
            32,
            32
          ],
          "Format/Datatype": "Row major linear FP32"
        }
      ],
      "ParameterType": "Convolution",
      "Kernel": [
        1,
        1
      ],
      "PaddingMode": "kEXPLICIT_ROUND_DOWN",
      "PrePadding": [
        0,
        0
      ],
      "PostPadding": [
        0,
        0
      ],
      "Stride": [
        1,
        1
      ],
      "Dilation": [
        1,
        1
      ],
      "OutMaps": 128,
      "Groups": 1,
      "Weights": {
        "Type": "Int8",
        "Count": 65536
      },
      "Bias": {
        "Type": "Float",
        "Count": 128
      },
      "HasBias": 1,
      "HasReLU": 0,
      "HasSparseWeights": 0,
      "HasDynamicFilter": 0,
      "HasDynamicBias": 0,
      "HasResidual": 0,
      "ConvXAsActInputIdx": -1,
      "BiasAsActInputIdx": -1,
      "ResAsActInputIdx": -1,
      "Activation": "GENERIC",
      "ParameterSubType": "PointWiseExpression",
      "NbPointWiseExpressionInputArgs": 1,
      "PointWiseExpressionInputArgs": [
        "arg0"
      ],
      "NbPointWiseExpressionOutputVars": 1,
      "PointWiseExpressionOutputVars": [
        "var4"
      ],
      "NbPointWiseExpressionParams": 0,
      "PointWiseExpressionParams": [],
      "NbPointWiseExpressionLiterals": 5,
      "PointWiseExpressionLiterals": [
        "1.414214e+00f",
        "0.000000e+00f",
        "1.000000e+00f",
        "0.000000e+00f",
        "5.000000e-01f"
      ],
      "NbPointWiseExpressionOperations": 5,
      "PointWiseExpressionOperations": [
        "auto const var0 = pwgen::iDiv(arg0, literal0);",
        "auto const var1 = pwgen::iErf(var0);",
        "auto const var2 = pwgen::iPlus(var1, literal2);",
        "auto const var3 = pwgen::iMul(arg0, var2);",
        "auto const var4 = pwgen::iMul(var3, literal4);"
      ],
      "TacticName": "volta_fp32_icudnn_int8x4_128x64_relu_interior_nn_v1",
      "TacticValue": "0x9207ee1605554a97",
      "StreamId": 0,
      "Metadata": "[ONNX Layer: /encoder4/block/block.1/block.1.4/weight_quantizer/QuantizeLinear]\u001e[ONNX Layer: /encoder4/block/block.1/block.1.4/Conv]\u001e[ONNX Layer: /encoder4/block/block.1/block.1.5/Div]\u001e[ONNX Layer: /encoder4/block/block.1/block.1.5/Erf]\u001e[ONNX Layer: /encoder4/block/block.1/block.1.5/Add]\u001e[ONNX Layer: /encoder4/block/block.1/block.1.5/Mul]\u001e[ONNX Layer: /encoder4/block/block.1/block.1.5/Mul_1]\u001e[ONNX Layer: /encoder4/block/block.1/block.1.4/input_quantizer/DequantizeLinear]\u001e[ONNX Layer: /encoder4/block/block.1/block.1.4/weight_quantizer/DequantizeLinear]"
    },
    {
      "Name": "/encoder4/block/block.1/block.1.6/BatchNormalization",
      "LayerType": "Scale",
      "Inputs": [
        {
          "Name": "/encoder4/block/block.1/block.1.5/Mul_1_output_0",
          "Location": "Device",
          "Dimensions": [
            1,
            128,
            32,
            32
          ],
          "Format/Datatype": "Row major linear FP32"
        }
      ],
      "Outputs": [
        {
          "Name": "/encoder4/block/block.1/block.1.6/BatchNormalization_output_0",
          "Location": "Device",
          "Dimensions": [
            1,
            128,
            32,
            32
          ],
          "Format/Datatype": "Row major linear FP32"
        }
      ],
      "ParameterType": "Scale",
      "Mode": "CHANNEL",
      "Shift": {
        "Type": "Float",
        "Count": 128
      },
      "Scale": {
        "Type": "Float",
        "Count": 128
      },
      "Power": {
        "Type": "Float",
        "Count": 0
      },
      "Activation": "NONE",
      "ChannelAxis": 1,
      "TacticValue": "0x0000000000000000",
      "StreamId": 0,
      "Metadata": "[ONNX Layer: /encoder4/block/block.1/block.1.6/BatchNormalization]"
    },
    {
      "Name": "/encoder4/block/block.2/block.2.0/fn/fn.0/input_quantizer/QuantizeLinear",
      "LayerType": "Reformat",
      "Inputs": [
        {
          "Name": "/encoder4/block/block.1/block.1.6/BatchNormalization_output_0",
          "Location": "Device",
          "Dimensions": [
            1,
            128,
            32,
            32
          ],
          "Format/Datatype": "Row major linear FP32"
        }
      ],
      "Outputs": [
        {
          "Name": "/encoder4/block/block.2/block.2.0/fn/fn.0/input_quantizer/QuantizeLinear_output_0",
          "Location": "Device",
          "Dimensions": [
            1,
            128,
            32,
            32
          ],
          "Format/Datatype": "Four wide channel vectorized row major Int8 format"
        }
      ],
      "ParameterType": "Reformat",
      "Origin": "QDQ",
      "TacticValue": "0x0000000000000000",
      "StreamId": 0,
      "Metadata": "[ONNX Layer: /encoder4/block/block.2/block.2.0/fn/fn.0/input_quantizer/QuantizeLinear]"
    },
    {
      "Name": "encoder4.block.2.0.fn.0.weight + /encoder4/block/block.2/block.2.0/fn/fn.0/weight_quantizer/QuantizeLinear + /encoder4/block/block.2/block.2.0/fn/fn.0/Conv",
      "LayerType": "CaskConvolution",
      "Inputs": [
        {
          "Name": "/encoder4/block/block.2/block.2.0/fn/fn.0/input_quantizer/QuantizeLinear_output_0",
          "Location": "Device",
          "Dimensions": [
            1,
            128,
            32,
            32
          ],
          "Format/Datatype": "Four wide channel vectorized row major Int8 format"
        }
      ],
      "Outputs": [
        {
          "Name": "/encoder4/block/block.2/block.2.0/fn/fn.0/Conv_output_0",
          "Location": "Device",
          "Dimensions": [
            1,
            128,
            32,
            32
          ],
          "Format/Datatype": "Row major linear FP32"
        }
      ],
      "ParameterType": "Convolution",
      "Kernel": [
        7,
        7
      ],
      "PaddingMode": "kEXPLICIT_ROUND_DOWN",
      "PrePadding": [
        3,
        3
      ],
      "PostPadding": [
        3,
        3
      ],
      "Stride": [
        1,
        1
      ],
      "Dilation": [
        1,
        1
      ],
      "OutMaps": 128,
      "Groups": 128,
      "Weights": {
        "Type": "Int8",
        "Count": 6272
      },
      "Bias": {
        "Type": "Float",
        "Count": 128
      },
      "HasBias": 1,
      "HasReLU": 0,
      "HasSparseWeights": 0,
      "HasDynamicFilter": 0,
      "HasDynamicBias": 0,
      "HasResidual": 0,
      "ConvXAsActInputIdx": -1,
      "BiasAsActInputIdx": -1,
      "ResAsActInputIdx": -1,
      "Activation": "NONE",
      "TacticName": "sm61_xmma_convolution_trt_depthwise_i8_conv_int8ncxhw4_fp32nchw_int8kcrs_R1_S1_U1_V1_spv4",
      "TacticValue": "0xb1a8f619ca27370b",
      "StreamId": 0,
      "Metadata": "[ONNX Layer: /encoder4/block/block.2/block.2.0/fn/fn.0/weight_quantizer/QuantizeLinear]\u001e[ONNX Layer: /encoder4/block/block.2/block.2.0/fn/fn.0/Conv]\u001e[ONNX Layer: /encoder4/block/block.2/block.2.0/fn/fn.0/input_quantizer/DequantizeLinear]\u001e[ONNX Layer: /encoder4/block/block.2/block.2.0/fn/fn.0/weight_quantizer/DequantizeLinear]"
    },
    {
      "Name": "Reformatting CopyNode for Input Tensor 0 to PWN(PWN(PWN(PWN(PWN(/encoder4/block/block.2/block.2.0/fn/fn.1/Constant_output_0 + ONNXTRT_Broadcast_174, /encoder4/block/block.2/block.2.0/fn/fn.1/Div), /encoder4/block/block.2/block.2.0/fn/fn.1/Erf), /encoder4/block/block.2/block.2.0/fn/fn.1/Constant_1_output_0 + ONNXTRT_Broadcast_176 + /encoder4/block/block.2/block.2.0/fn/fn.1/Add), /encoder4/block/block.2/block.2.0/fn/fn.1/Mul), /encoder4/block/block.2/block.2.0/fn/fn.1/Constant_2_output_0 + ONNXTRT_Broadcast_178 + /encoder4/block/block.2/block.2.0/fn/fn.1/Mul_1)",
      "LayerType": "NoOp",
      "Inputs": [
        {
          "Name": "/encoder4/block/block.2/block.2.0/fn/fn.0/Conv_output_0",
          "Location": "Device",
          "Dimensions": [
            1,
            128,
            32,
            32
          ],
          "Format/Datatype": "Row major linear FP32"
        }
      ],
      "Outputs": [
        {
          "Name": "Reformatted Input Tensor 0 to PWN(PWN(PWN(PWN(PWN(/encoder4/block/block.2/block.2.0/fn/fn.1/Constant_output_0 + ONNXTRT_Broadcast_174, /encoder4/block/block.2/block.2.0/fn/fn.1/Div), /encoder4/block/block.2/block.2.0/fn/fn.1/Erf), /encoder4/block/block.2/block.2.0/fn/fn.1/Constant_1_output_0 + ONNXTRT_Broadcast_176 + /encoder4/block/block.2/block.2.0/fn/fn.1/Add), /encoder4/block/block.2/block.2.0/fn/fn.1/Mul), /encoder4/block/block.2/block.2.0/fn/fn.1/Constant_2_output_0 + ONNXTRT_Broadcast_178 + /encoder4/block/block.2/block.2.0/fn/fn.1/Mul_1)",
          "Location": "Device",
          "Dimensions": [
            1,
            128,
            32,
            32
          ],
          "Format/Datatype": "Row major linear FP32"
        }
      ],
      "TacticValue": "0x0000000000000000",
      "StreamId": 0,
      "Metadata": ""
    },
    {
      "Name": "PWN(PWN(PWN(PWN(PWN(/encoder4/block/block.2/block.2.0/fn/fn.1/Constant_output_0 + ONNXTRT_Broadcast_174, /encoder4/block/block.2/block.2.0/fn/fn.1/Div), /encoder4/block/block.2/block.2.0/fn/fn.1/Erf), /encoder4/block/block.2/block.2.0/fn/fn.1/Constant_1_output_0 + ONNXTRT_Broadcast_176 + /encoder4/block/block.2/block.2.0/fn/fn.1/Add), /encoder4/block/block.2/block.2.0/fn/fn.1/Mul), /encoder4/block/block.2/block.2.0/fn/fn.1/Constant_2_output_0 + ONNXTRT_Broadcast_178 + /encoder4/block/block.2/block.2.0/fn/fn.1/Mul_1)",
      "LayerType": "PointWiseV2",
      "Inputs": [
        {
          "Name": "Reformatted Input Tensor 0 to PWN(PWN(PWN(PWN(PWN(/encoder4/block/block.2/block.2.0/fn/fn.1/Constant_output_0 + ONNXTRT_Broadcast_174, /encoder4/block/block.2/block.2.0/fn/fn.1/Div), /encoder4/block/block.2/block.2.0/fn/fn.1/Erf), /encoder4/block/block.2/block.2.0/fn/fn.1/Constant_1_output_0 + ONNXTRT_Broadcast_176 + /encoder4/block/block.2/block.2.0/fn/fn.1/Add), /encoder4/block/block.2/block.2.0/fn/fn.1/Mul), /encoder4/block/block.2/block.2.0/fn/fn.1/Constant_2_output_0 + ONNXTRT_Broadcast_178 + /encoder4/block/block.2/block.2.0/fn/fn.1/Mul_1)",
          "Location": "Device",
          "Dimensions": [
            1,
            128,
            32,
            32
          ],
…
          "Format/Datatype": "Row major linear FP32"
        }
      ],
      "Outputs": [
        {
          "Name": "/Up3/up/up.0/Resize_output_0",
          "Location": "Device",
          "Dimensions": [
            1,
            128,
            128,
            128
          ],
          "Format/Datatype": "Row major linear FP32"
        }
      ],
      "ParameterType": "Resize",
      "InterpolationMode": "LINEAR",
      "ResizeScales": [
        1,
        1,
        2,
        2,
        0,
        0,
        0,
        0
      ],
      "ExcludeOutside": 0,
      "CubicCoeff": -0.75,
      "CoordTransform": "kHALF_PIXEL",
      "ResizeSelector": "kFORMULA",
      "NNRounding": "kFLOOR",
      "TacticValue": "0x0000000000000001",
      "StreamId": 0,
      "Metadata": "[ONNX Layer: /Up3/up/up.0/Resize]"
    },
    {
      "Name": "/Up3/up/up.1/input_quantizer/QuantizeLinear",
      "LayerType": "Reformat",
      "Inputs": [
        {
          "Name": "/Up3/up/up.0/Resize_output_0",
          "Location": "Device",
          "Dimensions": [
            1,
            128,
            128,
            128
          ],
          "Format/Datatype": "Row major linear FP32"
        }
      ],
      "Outputs": [
        {
          "Name": "/Up3/up/up.1/input_quantizer/QuantizeLinear_output_0",
          "Location": "Device",
          "Dimensions": [
            1,
            128,
            128,
            128
          ],
          "Format/Datatype": "Thirty-two wide channel vectorized row major Int8 format"
        }
      ],
      "ParameterType": "Reformat",
      "Origin": "QDQ",
      "TacticValue": "0x00000000000003ea",
      "StreamId": 0,
      "Metadata": "[ONNX Layer: /Up3/up/up.1/input_quantizer/QuantizeLinear]"
    },
    {
      "Name": "Up3.up.1.weight + /Up3/up/up.1/weight_quantizer/QuantizeLinear + /Up3/up/up.1/Conv",
      "LayerType": "CaskConvolution",
      "Inputs": [
        {
          "Name": "/Up3/up/up.1/input_quantizer/QuantizeLinear_output_0",
          "Location": "Device",
          "Dimensions": [
            1,
            128,
            128,
            128
          ],
          "Format/Datatype": "Thirty-two wide channel vectorized row major Int8 format"
        }
      ],
      "Outputs": [
        {
          "Name": "Reformatted Output Tensor 0 to Up3.up.1.weight + /Up3/up/up.1/weight_quantizer/QuantizeLinear + /Up3/up/up.1/Conv",
          "Location": "Device",
          "Dimensions": [
            1,
            32,
            128,
            128
          ],
          "Format/Datatype": "Thirty-two wide channel vectorized row major Int8 format"
        }
      ],
      "ParameterType": "Convolution",
      "Kernel": [
        3,
        3
      ],
      "PaddingMode": "kEXPLICIT_ROUND_DOWN",
      "PrePadding": [
        1,
        1
      ],
      "PostPadding": [
        1,
        1
      ],
      "Stride": [
        1,
        1
      ],
      "Dilation": [
        1,
        1
      ],
      "OutMaps": 32,
      "Groups": 1,
      "Weights": {
        "Type": "Int8",
        "Count": 36864
      },
      "Bias": {
        "Type": "Float",
        "Count": 32
      },
      "HasBias": 1,
      "HasReLU": 1,
      "HasSparseWeights": 0,
      "HasDynamicFilter": 0,
      "HasDynamicBias": 0,
      "HasResidual": 0,
      "ConvXAsActInputIdx": -1,
      "BiasAsActInputIdx": -1,
      "ResAsActInputIdx": -1,
      "Activation": "RELU",
      "TacticName": "sm75_xmma_fprop_implicit_gemm_interleaved_i8i8_i8i32_f32_nchw_vect_c_32kcrs_vect_c_32_nchw_vect_c_32_tilesize64x32x64_stage1_warpsize2x1x1_g1_tensor8x8x16",
      "TacticValue": "0xfaea3ed8eff52856",
      "StreamId": 0,
      "Metadata": "[ONNX Layer: /Up3/up/up.1/weight_quantizer/QuantizeLinear]\u001e[ONNX Layer: /Up3/up/up.1/Conv]\u001e[ONNX Layer: /Up3/up/up.2/BatchNormalization]\u001e[ONNX Layer: /Up3/up/up.3/Relu]\u001e[ONNX Layer: /Up_conv3/conv/conv.0/input_quantizer/QuantizeLinear]\u001e[ONNX Layer: /Up3/up/up.1/input_quantizer/DequantizeLinear]\u001e[ONNX Layer: /Up3/up/up.1/weight_quantizer/DequantizeLinear]"
    },
    {
      "Name": "Reformatting CopyNode for Output Tensor 0 to Up3.up.1.weight + /Up3/up/up.1/weight_quantizer/QuantizeLinear + /Up3/up/up.1/Conv",
      "LayerType": "Reformat",
      "Inputs": [
        {
          "Name": "Reformatted Output Tensor 0 to Up3.up.1.weight + /Up3/up/up.1/weight_quantizer/QuantizeLinear + /Up3/up/up.1/Conv",
          "Location": "Device",
          "Dimensions": [
            1,
            32,
            128,
            128
          ],
          "Format/Datatype": "Thirty-two wide channel vectorized row major Int8 format"
        }
      ],
      "Outputs": [
        {
          "Name": "/Up_conv3/conv/conv.0/input_quantizer/QuantizeLinear_output_0",
          "Location": "Device",
          "Dimensions": [
            1,
            32,
            128,
            128
          ],
          "Format/Datatype": "Four wide channel vectorized row major Int8 format"
        }
      ],
      "ParameterType": "Reformat",
      "Origin": "REFORMAT",
      "TacticValue": "0x0000000000000000",
      "StreamId": 0,
      "Metadata": ""
    },
    {
      "Name": "/Up_conv3/conv/conv.0/input_quantizer/QuantizeLinear_clone_0",
      "LayerType": "Reformat",
      "Inputs": [
        {
          "Name": "/encoder2/up/conv/conv.2/Relu_output_0",
          "Location": "Device",
          "Dimensions": [
            1,
            32,
            128,
            128
          ],
          "Format/Datatype": "Row major linear FP32"
        }
      ],
      "Outputs": [
        {
          "Name": "/Up_conv3/conv/conv.0/input_quantizer/QuantizeLinear_output_0",
          "Location": "Device",
          "Dimensions": [
            1,
            32,
            128,
            128
          ],
          "Format/Datatype": "Four wide channel vectorized row major Int8 format"
        }
      ],
      "ParameterType": "Reformat",
      "Origin": "QDQ",
      "TacticValue": "0x0000000000000000",
      "StreamId": 0,
      "Metadata": "[ONNX Layer: /Up_conv3/conv/conv.0/input_quantizer/QuantizeLinear]"
    },
    {
      "Name": "Up_conv3.conv.0.weight + /Up_conv3/conv/conv.0/weight_quantizer/QuantizeLinear + /Up_conv3/conv/conv.0/Conv + PWN(PWN(PWN(PWN(PWN(/Up_conv3/conv/conv.1/Constant_output_0 + ONNXTRT_Broadcast_316, /Up_conv3/conv/conv.1/Div), /Up_conv3/conv/conv.1/Erf), /Up_conv3/conv/conv.1/Constant_1_output_0 + ONNXTRT_Broadcast_318 + /Up_conv3/conv/conv.1/Add), /Up_conv3/conv/conv.1/Mul), /Up_conv3/conv/conv.1/Constant_2_output_0 + ONNXTRT_Broadcast_320 + /Up_conv3/conv/conv.1/Mul_1)",
      "LayerType": "CaskConvolution",
      "Inputs": [
        {
          "Name": "/Up_conv3/conv/conv.0/input_quantizer/QuantizeLinear_output_0",
          "Location": "Device",
          "Dimensions": [
            1,
            64,
            128,
            128
          ],
          "Format/Datatype": "Four wide channel vectorized row major Int8 format"
        }
      ],
      "Outputs": [
        {
          "Name": "/Up_conv3/conv/conv.1/Mul_1_output_0",
          "Location": "Device",
          "Dimensions": [
            1,
            64,
            128,
            128
          ],
          "Format/Datatype": "Row major linear FP32"
        }
      ],
      "ParameterType": "Convolution",
      "Kernel": [
        3,
        3
      ],
      "PaddingMode": "kEXPLICIT_ROUND_DOWN",
      "PrePadding": [
        1,
        1
      ],
      "PostPadding": [
        1,
        1
      ],
      "Stride": [
        1,
        1
      ],
      "Dilation": [
        1,
        1
      ],
      "OutMaps": 64,
      "Groups": 2,
      "Weights": {
        "Type": "Int8",
        "Count": 18432
      },
      "Bias": {
        "Type": "Float",
        "Count": 64
      },
      "HasBias": 1,
      "HasReLU": 0,
      "HasSparseWeights": 0,
      "HasDynamicFilter": 0,
      "HasDynamicBias": 0,
      "HasResidual": 0,
      "ConvXAsActInputIdx": -1,
      "BiasAsActInputIdx": -1,
      "ResAsActInputIdx": -1,
      "Activation": "GENERIC",
      "ParameterSubType": "PointWiseExpression",
      "NbPointWiseExpressionInputArgs": 1,
      "PointWiseExpressionInputArgs": [
        "arg0"
      ],
      "NbPointWiseExpressionOutputVars": 1,
      "PointWiseExpressionOutputVars": [
        "var4"
      ],
      "NbPointWiseExpressionParams": 0,
      "PointWiseExpressionParams": [],
      "NbPointWiseExpressionLiterals": 5,
      "PointWiseExpressionLiterals": [
        "1.414214e+00f",
        "0.000000e+00f",
        "1.000000e+00f",
        "0.000000e+00f",
        "5.000000e-01f"
      ],
      "NbPointWiseExpressionOperations": 5,
      "PointWiseExpressionOperations": [
        "auto const var0 = pwgen::iDiv(arg0, literal0);",
        "auto const var1 = pwgen::iErf(var0);",
        "auto const var2 = pwgen::iPlus(var1, literal2);",
        "auto const var3 = pwgen::iMul(arg0, var2);",
        "auto const var4 = pwgen::iMul(var3, literal4);"
      ],
      "TacticName": "volta_fp32_icudnn_int8x4_128x32_relu_xregs_medium_nn_v1",
      "TacticValue": "0x10b707d10aa7c706",
      "StreamId": 0,
      "Metadata": "[ONNX Layer: /Up_conv3/conv/conv.0/weight_quantizer/QuantizeLinear]\u001e[ONNX Layer: /Up_conv3/conv/conv.0/Conv]\u001e[ONNX Layer: /Up_conv3/conv/conv.1/Div]\u001e[ONNX Layer: /Up_conv3/conv/conv.1/Erf]\u001e[ONNX Layer: /Up_conv3/conv/conv.1/Add]\u001e[ONNX Layer: /Up_conv3/conv/conv.1/Mul]\u001e[ONNX Layer: /Up_conv3/conv/conv.1/Mul_1]\u001e[ONNX Layer: /Up_conv3/conv/conv.0/input_quantizer/DequantizeLinear]\u001e[ONNX Layer: /Up_conv3/conv/conv.0/weight_quantizer/DequantizeLinear]"
    },
    {
      "Name": "/Up_conv3/conv/conv.2/BatchNormalization",
      "LayerType": "Scale",
      "Inputs": [
        {
          "Name": "/Up_conv3/conv/conv.1/Mul_1_output_0",
          "Location": "Device",
          "Dimensions": [
            1,
            64,
            128,
            128
          ],
          "Format/Datatype": "Row major linear FP32"
        }
      ],
      "Outputs": [
        {
          "Name": "/Up_conv3/conv/conv.2/BatchNormalization_output_0",
          "Location": "Device",
          "Dimensions": [
            1,
            64,
            128,
            128
          ],
          "Format/Datatype": "Row major linear FP32"
        }
      ],
      "ParameterType": "Scale",
      "Mode": "CHANNEL",
      "Shift": {
        "Type": "Float",
        "Count": 64
      },
      "Scale": {
        "Type": "Float",
        "Count": 64
      },
      "Power": {
        "Type": "Float",
        "Count": 0
      },
      "Activation": "NONE",
      "ChannelAxis": 1,
      "TacticValue": "0x0000000000000000",
      "StreamId": 0,
      "Metadata": "[ONNX Layer: /Up_conv3/conv/conv.2/BatchNormalization]"
    },
    {
      "Name": "/Up_conv3/conv/conv.3/input_quantizer/QuantizeLinear",
      "LayerType": "Reformat",
      "Inputs": [
        {
          "Name": "/Up_conv3/conv/conv.2/BatchNormalization_output_0",
          "Location": "Device",
          "Dimensions": [
            1,
            64,
            128,
            128
          ],
          "Format/Datatype": "Row major linear FP32"
        }
      ],
      "Outputs": [
        {
          "Name": "/Up_conv3/conv/conv.3/input_quantizer/QuantizeLinear_output_0",
          "Location": "Device",
          "Dimensions": [
            1,
            64,
            128,
            128
          ],
          "Format/Datatype": "Four wide channel vectorized row major Int8 format"
        }
      ],
      "ParameterType": "Reformat",
      "Origin": "QDQ",
      "TacticValue": "0x0000000000000000",
      "StreamId": 0,
      "Metadata": "[ONNX Layer: /Up_conv3/conv/conv.3/input_quantizer/QuantizeLinear]"
    },
    {
      "Name": "Up_conv3.conv.3.weight + /Up_conv3/conv/conv.3/weight_quantizer/QuantizeLinear + /Up_conv3/conv/conv.3/Conv + PWN(PWN(PWN(PWN(PWN(/Up_conv3/conv/conv.4/Constant_output_0 + ONNXTRT_Broadcast_326, /Up_conv3/conv/conv.4/Div), /Up_conv3/conv/conv.4/Erf), /Up_conv3/conv/conv.4/Constant_1_output_0 + ONNXTRT_Broadcast_328 + /Up_conv3/conv/conv.4/Add), /Up_conv3/conv/conv.4/Mul), /Up_conv3/conv/conv.4/Constant_2_output_0 + ONNXTRT_Broadcast_330 + /Up_conv3/conv/conv.4/Mul_1)",
      "LayerType": "CaskConvolution",
      "Inputs": [
        {
          "Name": "/Up_conv3/conv/conv.3/input_quantizer/QuantizeLinear_output_0",
          "Location": "Device",
          "Dimensions": [
            1,
            64,
            128,
            128
          ],
          "Format/Datatype": "Four wide channel vectorized row major Int8 format"
        }
      ],
      "Outputs": [
        {
          "Name": "/Up_conv3/conv/conv.4/Mul_1_output_0",
          "Location": "Device",
          "Dimensions": [
            1,
            128,
            128,
            128
          ],
          "Format/Datatype": "Row major linear FP32"
        }
      ],
      "ParameterType": "Convolution",
      "Kernel": [
        1,
        1
      ],
      "PaddingMode": "kEXPLICIT_ROUND_DOWN",
      "PrePadding": [
        0,
        0
      ],
      "PostPadding": [
        0,
        0
      ],
      "Stride": [
        1,
        1
      ],
      "Dilation": [
        1,
        1
      ],
      "OutMaps": 128,
      "Groups": 1,
      "Weights": {
        "Type": "Int8",
        "Count": 8192
      },
      "Bias": {
        "Type": "Float",
        "Count": 128
      },
      "HasBias": 1,
      "HasReLU": 0,
      "HasSparseWeights": 0,
      "HasDynamicFilter": 0,
      "HasDynamicBias": 0,
      "HasResidual": 0,
      "ConvXAsActInputIdx": -1,
      "BiasAsActInputIdx": -1,
      "ResAsActInputIdx": -1,
      "Activation": "GENERIC",
      "ParameterSubType": "PointWiseExpression",
      "NbPointWiseExpressionInputArgs": 1,
      "PointWiseExpressionInputArgs": [
        "arg0"
      ],
      "NbPointWiseExpressionOutputVars": 1,
      "PointWiseExpressionOutputVars": [
        "var4"
      ],
      "NbPointWiseExpressionParams": 0,
      "PointWiseExpressionParams": [],
      "NbPointWiseExpressionLiterals": 5,
      "PointWiseExpressionLiterals": [
        "1.414214e+00f",
        "0.000000e+00f",
        "1.000000e+00f",
        "0.000000e+00f",
        "5.000000e-01f"
      ],
      "NbPointWiseExpressionOperations": 5,
      "PointWiseExpressionOperations": [
        "auto const var0 = pwgen::iDiv(arg0, literal0);",
        "auto const var1 = pwgen::iErf(var0);",
        "auto const var2 = pwgen::iPlus(var1, literal2);",
        "auto const var3 = pwgen::iMul(arg0, var2);",
        "auto const var4 = pwgen::iMul(var3, literal4);"
      ],
      "TacticName": "volta_fp32_icudnn_int8x4_128x64_relu_medium_nn_v1",
      "TacticValue": "0x1c8cf790ced716c8",
      "StreamId": 0,
      "Metadata": "[ONNX Layer: /Up_conv3/conv/conv.3/weight_quantizer/QuantizeLinear]\u001e[ONNX Layer: /Up_conv3/conv/conv.3/Conv]\u001e[ONNX Layer: /Up_conv3/conv/conv.4/Div]\u001e[ONNX Layer: /Up_conv3/conv/conv.4/Erf]\u001e[ONNX Layer: /Up_conv3/conv/conv.4/Add]\u001e[ONNX Layer: /Up_conv3/conv/conv.4/Mul]\u001e[ONNX Layer: /Up_conv3/conv/conv.4/Mul_1]\u001e[ONNX Layer: /Up_conv3/conv/conv.3/input_quantizer/DequantizeLinear]\u001e[ONNX Layer: /Up_conv3/conv/conv.3/weight_quantizer/DequantizeLinear]"
    },
    {
      "Name": "/Up_conv3/conv/conv.5/BatchNormalization",
      "LayerType": "Scale",
      "Inputs": [
        {
          "Name": "/Up_conv3/conv/conv.4/Mul_1_output_0",
          "Location": "Device",
          "Dimensions": [
            1,
            128,
            128,
            128
          ],
          "Format/Datatype": "Row major linear FP32"
        }
      ],
      "Outputs": [
        {
          "Name": "/Up_conv3/conv/conv.5/BatchNormalization_output_0",
          "Location": "Device",
          "Dimensions": [
            1,
            128,
            128,
            128
          ],
          "Format/Datatype": "Row major linear FP32"
        }
      ],
      "ParameterType": "Scale",
      "Mode": "CHANNEL",
      "Shift": {
        "Type": "Float",
        "Count": 128
      },
      "Scale": {
        "Type": "Float",
        "Count": 128
      },
      "Power": {
        "Type": "Float",
        "Count": 0
      },
      "Activation": "NONE",
      "ChannelAxis": 1,
      "TacticValue": "0x0000000000000000",
      "StreamId": 0,
      "Metadata": "[ONNX Layer: /Up_conv3/conv/conv.5/BatchNormalization]"
    },
    {
      "Name": "/Up_conv3/conv/conv.6/input_quantizer/QuantizeLinear",
      "LayerType": "Reformat",
      "Inputs": [
        {
          "Name": "/Up_conv3/conv/conv.5/BatchNormalization_output_0",
          "Location": "Device",
          "Dimensions": [
            1,
            128,
            128,
            128
          ],
          "Format/Datatype": "Row major linear FP32"
        }
      ],
      "Outputs": [
        {
          "Name": "/Up_conv3/conv/conv.6/input_quantizer/QuantizeLinear_output_0",
          "Location": "Device",
          "Dimensions": [
            1,
            128,
            128,
            128
          ],
          "Format/Datatype": "Four wide channel vectorized row major Int8 format"
        }
      ],
      "ParameterType": "Reformat",
      "Origin": "QDQ",
      "TacticValue": "0x0000000000000000",
      "StreamId": 0,
      "Metadata": "[ONNX Layer: /Up_conv3/conv/conv.6/input_quantizer/QuantizeLinear]"
    },
    {
      "Name": "Up_conv3.conv.6.weight + /Up_conv3/conv/conv.6/weight_quantizer/QuantizeLinear + /Up_conv3/conv/conv.6/Conv + PWN(PWN(PWN(PWN(PWN(/Up_conv3/conv/conv.7/Constant_output_0 + ONNXTRT_Broadcast_336, /Up_conv3/conv/conv.7/Div), /Up_conv3/conv/conv.7/Erf), /Up_conv3/conv/conv.7/Constant_1_output_0 + ONNXTRT_Broadcast_338 + /Up_conv3/conv/conv.7/Add), /Up_conv3/conv/conv.7/Mul), /Up_conv3/conv/conv.7/Constant_2_output_0 + ONNXTRT_Broadcast_340 + /Up_conv3/conv/conv.7/Mul_1)",
      "LayerType": "CaskConvolution",
      "Inputs": [
        {
          "Name": "/Up_conv3/conv/conv.6/input_quantizer/QuantizeLinear_output_0",
          "Location": "Device",
          "Dimensions": [
            1,
            128,
            128,
            128
          ],
          "Format/Datatype": "Four wide channel vectorized row major Int8 format"
        }
      ],
      "Outputs": [
        {
          "Name": "/Up_conv3/conv/conv.7/Mul_1_output_0",
          "Location": "Device",
          "Dimensions": [
            1,
            32,
            128,
            128
          ],
          "Format/Datatype": "Row major linear FP32"
        }
      ],
      "ParameterType": "Convolution",
      "Kernel": [
        1,
        1
      ],
      "PaddingMode": "kEXPLICIT_ROUND_DOWN",
      "PrePadding": [
        0,
        0
      ],
      "PostPadding": [
        0,
        0
      ],
      "Stride": [
        1,
        1
      ],
      "Dilation": [
        1,
        1
      ],
      "OutMaps": 32,
      "Groups": 1,
      "Weights": {
        "Type": "Int8",
        "Count": 4096
      },
      "Bias": {
        "Type": "Float",
        "Count": 32
      },
      "HasBias": 1,
      "HasReLU": 0,
      "HasSparseWeights": 0,
      "HasDynamicFilter": 0,
      "HasDynamicBias": 0,
      "HasResidual": 0,
      "ConvXAsActInputIdx": -1,
      "BiasAsActInputIdx": -1,
      "ResAsActInputIdx": -1,
      "Activation": "GENERIC",
      "ParameterSubType": "PointWiseExpression",
      "NbPointWiseExpressionInputArgs": 1,
      "PointWiseExpressionInputArgs": [
        "arg0"
      ],
      "NbPointWiseExpressionOutputVars": 1,
      "PointWiseExpressionOutputVars": [
        "var4"
      ],
      "NbPointWiseExpressionParams": 0,
      "PointWiseExpressionParams": [],
      "NbPointWiseExpressionLiterals": 5,
      "PointWiseExpressionLiterals": [
        "1.414214e+00f",
        "0.000000e+00f",
        "1.000000e+00f",
        "0.000000e+00f",
        "5.000000e-01f"
      ],
      "NbPointWiseExpressionOperations": 5,
      "PointWiseExpressionOperations": [
        "auto const var0 = pwgen::iDiv(arg0, literal0);",
        "auto const var1 = pwgen::iErf(var0);",
        "auto const var2 = pwgen::iPlus(var1, literal2);",
        "auto const var3 = pwgen::iMul(arg0, var2);",
        "auto const var4 = pwgen::iMul(var3, literal4);"
      ],
      "TacticName": "volta_fp32_icudnn_int8x4_128x32_relu_interior_nn_v1",
      "TacticValue": "0xc9c0872569525a26",
      "StreamId": 0,
      "Metadata": "[ONNX Layer: /Up_conv3/conv/conv.6/weight_quantizer/QuantizeLinear]\u001e[ONNX Layer: /Up_conv3/conv/conv.6/Conv]\u001e[ONNX Layer: /Up_conv3/conv/conv.7/Div]\u001e[ONNX Layer: /Up_conv3/conv/conv.7/Erf]\u001e[ONNX Layer: /Up_conv3/conv/conv.7/Add]\u001e[ONNX Layer: /Up_conv3/conv/conv.7/Mul]\u001e[ONNX Layer: /Up_conv3/conv/conv.7/Mul_1]\u001e[ONNX Layer: /Up_conv3/conv/conv.6/input_quantizer/DequantizeLinear]\u001e[ONNX Layer: /Up_conv3/conv/conv.6/weight_quantizer/DequantizeLinear]"
    },
    {
      "Name": "/Up_conv3/conv/conv.8/BatchNormalization",
      "LayerType": "Scale",
      "Inputs": [
        {
          "Name": "/Up_conv3/conv/conv.7/Mul_1_output_0",
          "Location": "Device",
          "Dimensions": [
            1,
            32,
            128,
            128
          ],
          "Format/Datatype": "Row major linear FP32"
        }
      ],
      "Outputs": [
        {
          "Name": "/Up_conv3/conv/conv.8/BatchNormalization_output_0",
          "Location": "Device",
          "Dimensions": [
            1,
            32,
            128,
            128
          ],
          "Format/Datatype": "Row major linear FP32"
        }
      ],
      "ParameterType": "Scale",
      "Mode": "CHANNEL",
      "Shift": {
        "Type": "Float",
        "Count": 32
      },
      "Scale": {
        "Type": "Float",
        "Count": 32
      },
      "Power": {
        "Type": "Float",
        "Count": 0
      },
      "Activation": "NONE",
      "ChannelAxis": 1,
      "TacticValue": "0x0000000000000000",
      "StreamId": 0,
      "Metadata": "[ONNX Layer: /Up_conv3/conv/conv.8/BatchNormalization]"
    },
    {
      "Name": "/Up2/up/up.0/Resize",
      "LayerType": "Resize",
      "Inputs": [
        {
          "Name": "/Up_conv3/conv/conv.8/BatchNormalization_output_0",
          "Location": "Device",
          "Dimensions": [
            1,
            32,
            128,
            128
          ],
          "Format/Datatype": "Row major linear FP32"
        }
      ],
      "Outputs": [
        {
          "Name": "/Up2/up/up.0/Resize_output_0",
          "Location": "Device",
          "Dimensions": [
            1,
            32,
            256,
            256
          ],
          "Format/Datatype": "Row major linear FP32"
        }
      ],
      "ParameterType": "Resize",
      "InterpolationMode": "LINEAR",
      "ResizeScales": [
        1,
        1,
        2,
        2,
        0,
        0,
        0,
        0
      ],
      "ExcludeOutside": 0,
      "CubicCoeff": -0.75,
      "CoordTransform": "kHALF_PIXEL",
      "ResizeSelector": "kFORMULA",
      "NNRounding": "kFLOOR",
      "TacticValue": "0x0000000000000001",
      "StreamId": 0,
      "Metadata": "[ONNX Layer: /Up2/up/up.0/Resize]"
    },
    {
      "Name": "/Up2/up/up.1/input_quantizer/QuantizeLinear",
      "LayerType": "Reformat",
      "Inputs": [
        {
          "Name": "/Up2/up/up.0/Resize_output_0",
          "Location": "Device",
          "Dimensions": [
            1,
            32,
            256,
            256
          ],
          "Format/Datatype": "Row major linear FP32"
        }
      ],
      "Outputs": [
        {
          "Name": "/Up2/up/up.1/input_quantizer/QuantizeLinear_output_0",
          "Location": "Device",
          "Dimensions": [
            1,
            32,
            256,
            256
          ],
          "Format/Datatype": "Thirty-two wide channel vectorized row major Int8 format"
        }
      ],
      "ParameterType": "Reformat",
      "Origin": "QDQ",
      "TacticValue": "0x00000000000003ea",
      "StreamId": 0,
      "Metadata": "[ONNX Layer: /Up2/up/up.1/input_quantizer/QuantizeLinear]"
    },
    {
      "Name": "Up2.up.1.weight + /Up2/up/up.1/weight_quantizer/QuantizeLinear + /Up2/up/up.1/Conv",
      "LayerType": "CaskConvolution",
      "Inputs": [
        {
          "Name": "/Up2/up/up.1/input_quantizer/QuantizeLinear_output_0",
          "Location": "Device",
          "Dimensions": [
            1,
            32,
            256,
            256
          ],
          "Format/Datatype": "Thirty-two wide channel vectorized row major Int8 format"
        }
      ],
      "Outputs": [
        {
          "Name": "Reformatted Output Tensor 0 to Up2.up.1.weight + /Up2/up/up.1/weight_quantizer/QuantizeLinear + /Up2/up/up.1/Conv",
          "Location": "Device",
          "Dimensions": [
            1,
            16,
            256,
            256
          ],
          "Format/Datatype": "Thirty-two wide channel vectorized row major Int8 format"
        }
      ],
      "ParameterType": "Convolution",
      "Kernel": [
        3,
        3
      ],
      "PaddingMode": "kEXPLICIT_ROUND_DOWN",
      "PrePadding": [
        1,
        1
      ],
      "PostPadding": [
        1,
        1
      ],
      "Stride": [
        1,
        1
      ],
      "Dilation": [
        1,
        1
      ],
      "OutMaps": 16,
      "Groups": 1,
      "Weights": {
        "Type": "Int8",
        "Count": 4608
      },
      "Bias": {
        "Type": "Float",
        "Count": 16
      },
      "HasBias": 1,
      "HasReLU": 1,
      "HasSparseWeights": 0,
      "HasDynamicFilter": 0,
      "HasDynamicBias": 0,
      "HasResidual": 0,
      "ConvXAsActInputIdx": -1,
      "BiasAsActInputIdx": -1,
      "ResAsActInputIdx": -1,
      "Activation": "RELU",
      "TacticName": "sm72_xmma_fprop_implicit_gemm_interleaved_i8i8_i8i32_f32_nchw_vect_c_32kcrs_vect_c_32_nchw_vect_c_32_tilesize64x32x64_stage1_warpsize2x1x1_g1_tensor8x8x16",
      "TacticValue": "0xf74432b67c548a05",
      "StreamId": 0,
      "Metadata": "[ONNX Layer: /Up2/up/up.1/weight_quantizer/QuantizeLinear]\u001e[ONNX Layer: /Up2/up/up.1/Conv]\u001e[ONNX Layer: /Up2/up/up.2/BatchNormalization]\u001e[ONNX Layer: /Up2/up/up.3/Relu]\u001e[ONNX Layer: /Up_conv2/conv/conv.0/input_quantizer/QuantizeLinear]\u001e[ONNX Layer: /Up2/up/up.1/input_quantizer/DequantizeLinear]\u001e[ONNX Layer: /Up2/up/up.1/weight_quantizer/DequantizeLinear]"
    },
    {
      "Name": "Reformatting CopyNode for Output Tensor 0 to Up2.up.1.weight + /Up2/up/up.1/weight_quantizer/QuantizeLinear + /Up2/up/up.1/Conv",
      "LayerType": "Reformat",
      "Inputs": [
        {
          "Name": "Reformatted Output Tensor 0 to Up2.up.1.weight + /Up2/up/up.1/weight_quantizer/QuantizeLinear + /Up2/up/up.1/Conv",
          "Location": "Device",
          "Dimensions": [
            1,
            16,
            256,
            256
          ],
          "Format/Datatype": "Thirty-two wide channel vectorized row major Int8 format"
        }
      ],
      "Outputs": [
        {
          "Name": "/Up_conv2/conv/conv.0/input_quantizer/QuantizeLinear_output_0",
          "Location": "Device",
          "Dimensions": [
            1,
            16,
            256,
            256
          ],
          "Format/Datatype": "Four wide channel vectorized row major Int8 format"
        }
      ],
      "ParameterType": "Reformat",
      "Origin": "REFORMAT",
      "TacticValue": "0x0000000000000000",
      "StreamId": 0,
      "Metadata": ""
    },
    {
      "Name": "Up_conv2.conv.0.weight + /Up_conv2/conv/conv.0/weight_quantizer/QuantizeLinear + /Up_conv2/conv/conv.0/Conv",
      "LayerType": "CaskConvolution",
      "Inputs": [
        {
          "Name": "/Up_conv2/conv/conv.0/input_quantizer/QuantizeLinear_output_0",
          "Location": "Device",
          "Dimensions": [
            1,
            32,
            256,
            256
          ],
          "Format/Datatype": "Four wide channel vectorized row major Int8 format"
        }
      ],
      "Outputs": [
        {
          "Name": "/Up_conv2/conv/conv.0/Conv_output_0",
          "Location": "Device",
          "Dimensions": [
            1,
            32,
            256,
            256
          ],
          "Format/Datatype": "Row major linear FP32"
        }
      ],
      "ParameterType": "Convolution",
      "Kernel": [
        3,
        3
      ],
      "PaddingMode": "kEXPLICIT_ROUND_DOWN",
      "PrePadding": [
        1,
        1
      ],
      "PostPadding": [
        1,
        1
      ],
      "Stride": [
        1,
        1
      ],
      "Dilation": [
        1,
        1
      ],
      "OutMaps": 32,
      "Groups": 2,
      "Weights": {
        "Type": "Int8",
        "Count": 4608
      },
      "Bias": {
        "Type": "Float",
        "Count": 32
      },
      "HasBias": 1,
      "HasReLU": 0,
      "HasSparseWeights": 0,
      "HasDynamicFilter": 0,
      "HasDynamicBias": 0,
      "HasResidual": 0,
      "ConvXAsActInputIdx": -1,
      "BiasAsActInputIdx": -1,
      "ResAsActInputIdx": -1,
      "Activation": "NONE",
      "TacticName": "volta_fp32_icudnn_int8x4_128x32_relu_small_nn_v1",
      "TacticValue": "0x170705f9b2fc8d53",
      "StreamId": 0,
      "Metadata": "[ONNX Layer: /Up_conv2/conv/conv.0/weight_quantizer/QuantizeLinear]\u001e[ONNX Layer: /Up_conv2/conv/conv.0/Conv]\u001e[ONNX Layer: /Up_conv2/conv/conv.0/input_quantizer/DequantizeLinear]\u001e[ONNX Layer: /Up_conv2/conv/conv.0/weight_quantizer/DequantizeLinear]"
    },
    {
      "Name": "Reformatting CopyNode for Input Tensor 0 to PWN(PWN(PWN(PWN(PWN(/Up_conv2/conv/conv.1/Constant_output_0 + ONNXTRT_Broadcast_350, /Up_conv2/conv/conv.1/Div), /Up_conv2/conv/conv.1/Erf), /Up_conv2/conv/conv.1/Constant_1_output_0 + ONNXTRT_Broadcast_352 + /Up_conv2/conv/conv.1/Add), /Up_conv2/conv/conv.1/Mul), /Up_conv2/conv/conv.1/Constant_2_output_0 + ONNXTRT_Broadcast_354 + /Up_conv2/conv/conv.1/Mul_1)",
      "LayerType": "NoOp",
      "Inputs": [
        {
          "Name": "/Up_conv2/conv/conv.0/Conv_output_0",
          "Location": "Device",
          "Dimensions": [
            1,
            32,
            256,
            256
          ],
          "Format/Datatype": "Row major linear FP32"
        }
      ],
      "Outputs": [
        {
          "Name": "Reformatted Input Tensor 0 to PWN(PWN(PWN(PWN(PWN(/Up_conv2/conv/conv.1/Constant_output_0 + ONNXTRT_Broadcast_350, /Up_conv2/conv/conv.1/Div), /Up_conv2/conv/conv.1/Erf), /Up_conv2/conv/conv.1/Constant_1_output_0 + ONNXTRT_Broadcast_352 + /Up_conv2/conv/conv.1/Add), /Up_conv2/conv/conv.1/Mul), /Up_conv2/conv/conv.1/Constant_2_output_0 + ONNXTRT_Broadcast_354 + /Up_conv2/conv/conv.1/Mul_1)",
          "Location": "Device",
          "Dimensions": [
            1,
            32,
            256,
            256
          ],
          "Format/Datatype": "Row major linear FP32"
        }
      ],
      "TacticValue": "0x0000000000000000",
      "StreamId": 0,
      "Metadata": ""
    },
    {
      "Name": "PWN(PWN(PWN(PWN(PWN(/Up_conv2/conv/conv.1/Constant_output_0 + ONNXTRT_Broadcast_350, /Up_conv2/conv/conv.1/Div), /Up_conv2/conv/conv.1/Erf), /Up_conv2/conv/conv.1/Constant_1_output_0 + ONNXTRT_Broadcast_352 + /Up_conv2/conv/conv.1/Add), /Up_conv2/conv/conv.1/Mul), /Up_conv2/conv/conv.1/Constant_2_output_0 + ONNXTRT_Broadcast_354 + /Up_conv2/conv/conv.1/Mul_1)",
      "LayerType": "PointWiseV2",
      "Inputs": [
        {
          "Name": "Reformatted Input Tensor 0 to PWN(PWN(PWN(PWN(PWN(/Up_conv2/conv/conv.1/Constant_output_0 + ONNXTRT_Broadcast_350, /Up_conv2/conv/conv.1/Div), /Up_conv2/conv/conv.1/Erf), /Up_conv2/conv/conv.1/Constant_1_output_0 + ONNXTRT_Broadcast_352 + /Up_conv2/conv/conv.1/Add), /Up_conv2/conv/conv.1/Mul), /Up_conv2/conv/conv.1/Constant_2_output_0 + ONNXTRT_Broadcast_354 + /Up_conv2/conv/conv.1/Mul_1)",
          "Location": "Device",
          "Dimensions": [
            1,
            32,
            256,
            256
          ],
          "Format/Datatype": "Row major linear FP32"
        }
      ],
      "Outputs": [
        {
          "Name": "/Up_conv2/conv/conv.1/Mul_1_output_0",
          "Location": "Device",
          "Dimensions": [
            1,
            32,
            256,
            256
          ],
          "Format/Datatype": "Row major linear FP32"
        }
      ],
      "ParameterType": "PointWise",
      "ParameterSubType": "PointWiseExpression",
      "NbInputArgs": 1,
      "InputArgs": [
        "arg0"
      ],
      "NbOutputVars": 1,
      "OutputVars": [
        "var4"
      ],
      "NbParams": 0,
      "Params": [],
      "NbLiterals": 5,
      "Literals": [
        "1.414214e+00f",
        "0.000000e+00f",
        "1.000000e+00f",
        "0.000000e+00f",
        "5.000000e-01f"
      ],
      "NbOperations": 5,
      "Operations": [
        "auto const var0 = pwgen::iDiv(arg0, literal0);",
        "auto const var1 = pwgen::iErf(var0);",
        "auto const var2 = pwgen::iPlus(var1, literal2);",
        "auto const var3 = pwgen::iMul(arg0, var2);",
        "auto const var4 = pwgen::iMul(var3, literal4);"
      ],
      "TacticValue": "0x0000000000000005",
      "StreamId": 0,
      "Metadata": "[ONNX Layer: /Up_conv2/conv/conv.1/Div]\u001e[ONNX Layer: /Up_conv2/conv/conv.1/Erf]\u001e[ONNX Layer: /Up_conv2/conv/conv.1/Add]\u001e[ONNX Layer: /Up_conv2/conv/conv.1/Mul]\u001e[ONNX Layer: /Up_conv2/conv/conv.1/Mul_1]"
    },
    {
      "Name": "Reformatting CopyNode for Input Tensor 0 to /Up_conv2/conv/conv.2/BatchNormalization",
      "LayerType": "NoOp",
      "Inputs": [
        {
          "Name": "/Up_conv2/conv/conv.1/Mul_1_output_0",
          "Location": "Device",
          "Dimensions": [
            1,
            32,
            256,
            256
          ],
          "Format/Datatype": "Row major linear FP32"
        }
      ],
      "Outputs": [
        {
          "Name": "Reformatted Input Tensor 0 to /Up_conv2/conv/conv.2/BatchNormalization",
          "Location": "Device",
          "Dimensions": [
            1,
            32,
            256,
            256
          ],
          "Format/Datatype": "Row major linear FP32"
        }
      ],
      "TacticValue": "0x0000000000000000",
      "StreamId": 0,
      "Metadata": ""
    },
    {
      "Name": "/Up_conv2/conv/conv.2/BatchNormalization",
      "LayerType": "Scale",
      "Inputs": [
        {
          "Name": "Reformatted Input Tensor 0 to /Up_conv2/conv/conv.2/BatchNormalization",
          "Location": "Device",
          "Dimensions": [
            1,
            32,
            256,
            256
          ],
          "Format/Datatype": "Row major linear FP32"
        }
      ],
      "Outputs": [
        {
          "Name": "/Up_conv2/conv/conv.2/BatchNormalization_output_0",
          "Location": "Device",
          "Dimensions": [
            1,
            32,
            256,
            256
          ],
          "Format/Datatype": "Row major linear FP32"
        }
      ],
      "ParameterType": "Scale",
      "Mode": "CHANNEL",
      "Shift": {
        "Type": "Float",
        "Count": 32
      },
      "Scale": {
        "Type": "Float",
        "Count": 32
      },
      "Power": {
        "Type": "Float",
        "Count": 0
      },
      "Activation": "NONE",
      "ChannelAxis": 1,
      "TacticValue": "0x0000000000000000",
      "StreamId": 0,
      "Metadata": "[ONNX Layer: /Up_conv2/conv/conv.2/BatchNormalization]"
    },
    {
      "Name": "/Up_conv2/conv/conv.3/input_quantizer/QuantizeLinear",
      "LayerType": "Reformat",
      "Inputs": [
        {
          "Name": "/Up_conv2/conv/conv.2/BatchNormalization_output_0",
          "Location": "Device",
          "Dimensions": [
            1,
            32,
            256,
            256
          ],
          "Format/Datatype": "Row major linear FP32"
        }
      ],
      "Outputs": [
        {
          "Name": "/Up_conv2/conv/conv.3/input_quantizer/QuantizeLinear_output_0",
          "Location": "Device",
          "Dimensions": [
            1,
            32,
            256,
            256
          ],
          "Format/Datatype": "Four wide channel vectorized row major Int8 format"
        }
      ],
      "ParameterType": "Reformat",
      "Origin": "QDQ",
      "TacticValue": "0x0000000000000000",
      "StreamId": 0,
      "Metadata": "[ONNX Layer: /Up_conv2/conv/conv.3/input_quantizer/QuantizeLinear]"
    },
    {
      "Name": "Up_conv2.conv.3.weight + /Up_conv2/conv/conv.3/weight_quantizer/QuantizeLinear + /Up_conv2/conv/conv.3/Conv + PWN(PWN(PWN(PWN(PWN(/Up_conv2/conv/conv.4/Constant_output_0 + ONNXTRT_Broadcast_360, /Up_conv2/conv/conv.4/Div), /Up_conv2/conv/conv.4/Erf), /Up_conv2/conv/conv.4/Constant_1_output_0 + ONNXTRT_Broadcast_362 + /Up_conv2/conv/conv.4/Add), /Up_conv2/conv/conv.4/Mul), /Up_conv2/conv/conv.4/Constant_2_output_0 + ONNXTRT_Broadcast_364 + /Up_conv2/conv/conv.4/Mul_1)",
      "LayerType": "CaskConvolution",
      "Inputs": [
        {
          "Name": "/Up_conv2/conv/conv.3/input_quantizer/QuantizeLinear_output_0",
          "Location": "Device",
          "Dimensions": [
            1,
            32,
            256,
            256
          ],
          "Format/Datatype": "Four wide channel vectorized row major Int8 format"
        }
      ],
      "Outputs": [
        {
          "Name": "/Up_conv2/conv/conv.4/Mul_1_output_0",
          "Location": "Device",
          "Dimensions": [
            1,
            64,
            256,
            256
          ],
          "Format/Datatype": "Row major linear FP32"
        }
      ],
      "ParameterType": "Convolution",
      "Kernel": [
        1,
        1
      ],
      "PaddingMode": "kEXPLICIT_ROUND_DOWN",
      "PrePadding": [
        0,
        0
      ],
      "PostPadding": [
        0,
        0
      ],
      "Stride": [
        1,
        1
      ],
      "Dilation": [
        1,
        1
      ],
      "OutMaps": 64,
      "Groups": 1,
      "Weights": {
        "Type": "Int8",
        "Count": 2048
      },
      "Bias": {
        "Type": "Float",
        "Count": 64
      },
      "HasBias": 1,
      "HasReLU": 0,
      "HasSparseWeights": 0,
      "HasDynamicFilter": 0,
      "HasDynamicBias": 0,
      "HasResidual": 0,
      "ConvXAsActInputIdx": -1,
      "BiasAsActInputIdx": -1,
      "ResAsActInputIdx": -1,
      "Activation": "GENERIC",
      "ParameterSubType": "PointWiseExpression",
      "NbPointWiseExpressionInputArgs": 1,
      "PointWiseExpressionInputArgs": [
        "arg0"
      ],
      "NbPointWiseExpressionOutputVars": 1,
      "PointWiseExpressionOutputVars": [
        "var4"
      ],
      "NbPointWiseExpressionParams": 0,
      "PointWiseExpressionParams": [],
      "NbPointWiseExpressionLiterals": 5,
      "PointWiseExpressionLiterals": [
        "1.414214e+00f",
        "0.000000e+00f",
        "1.000000e+00f",
        "0.000000e+00f",
        "5.000000e-01f"
      ],
      "NbPointWiseExpressionOperations": 5,
      "PointWiseExpressionOperations": [
        "auto const var0 = pwgen::iDiv(arg0, literal0);",
        "auto const var1 = pwgen::iErf(var0);",
        "auto const var2 = pwgen::iPlus(var1, literal2);",
        "auto const var3 = pwgen::iMul(arg0, var2);",
        "auto const var4 = pwgen::iMul(var3, literal4);"
      ],
      "TacticName": "volta_fp32_icudnn_int8x4_128x32_relu_interior_nn_v1",
      "TacticValue": "0xc9c0872569525a26",
      "StreamId": 0,
      "Metadata": "[ONNX Layer: /Up_conv2/conv/conv.3/weight_quantizer/QuantizeLinear]\u001e[ONNX Layer: /Up_conv2/conv/conv.3/Conv]\u001e[ONNX Layer: /Up_conv2/conv/conv.4/Div]\u001e[ONNX Layer: /Up_conv2/conv/conv.4/Erf]\u001e[ONNX Layer: /Up_conv2/conv/conv.4/Add]\u001e[ONNX Layer: /Up_conv2/conv/conv.4/Mul]\u001e[ONNX Layer: /Up_conv2/conv/conv.4/Mul_1]\u001e[ONNX Layer: /Up_conv2/conv/conv.3/input_quantizer/DequantizeLinear]\u001e[ONNX Layer: /Up_conv2/conv/conv.3/weight_quantizer/DequantizeLinear]"
    },
    {
      "Name": "/Up_conv2/conv/conv.5/BatchNormalization",
      "LayerType": "Scale",
      "Inputs": [
        {
          "Name": "/Up_conv2/conv/conv.4/Mul_1_output_0",
          "Location": "Device",
          "Dimensions": [
            1,
            64,
            256,
            256
          ],
          "Format/Datatype": "Row major linear FP32"
        }
      ],
      "Outputs": [
        {
          "Name": "/Up_conv2/conv/conv.5/BatchNormalization_output_0",
          "Location": "Device",
          "Dimensions": [
            1,
            64,
            256,
            256
          ],
          "Format/Datatype": "Row major linear FP32"
        }
      ],
      "ParameterType": "Scale",
      "Mode": "CHANNEL",
      "Shift": {
        "Type": "Float",
        "Count": 64
      },
      "Scale": {
        "Type": "Float",
        "Count": 64
      },
      "Power": {
        "Type": "Float",
        "Count": 0
      },
      "Activation": "NONE",
      "ChannelAxis": 1,
      "TacticValue": "0x0000000000000000",
      "StreamId": 0,
      "Metadata": "[ONNX Layer: /Up_conv2/conv/conv.5/BatchNormalization]"
    },
    {
      "Name": "/Up_conv2/conv/conv.6/input_quantizer/QuantizeLinear",
      "LayerType": "Reformat",
      "Inputs": [
        {
          "Name": "/Up_conv2/conv/conv.5/BatchNormalization_output_0",
          "Location": "Device",
          "Dimensions": [
            1,
            64,
            256,
            256
          ],
          "Format/Datatype": "Row major linear FP32"
        }
      ],
      "Outputs": [
        {
          "Name": "/Up_conv2/conv/conv.6/input_quantizer/QuantizeLinear_output_0",
          "Location": "Device",
          "Dimensions": [
            1,
            64,
            256,
            256
          ],
          "Format/Datatype": "Four wide channel vectorized row major Int8 format"
        }
      ],
      "ParameterType": "Reformat",
      "Origin": "QDQ",
      "TacticValue": "0x0000000000000000",
      "StreamId": 0,
      "Metadata": "[ONNX Layer: /Up_conv2/conv/conv.6/input_quantizer/QuantizeLinear]"
    },
    {
      "Name": "Up_conv2.conv.6.weight + /Up_conv2/conv/conv.6/weight_quantizer/QuantizeLinear + /Up_conv2/conv/conv.6/Conv + PWN(PWN(PWN(PWN(PWN(/Up_conv2/conv/conv.7/Constant_output_0 + ONNXTRT_Broadcast_370, /Up_conv2/conv/conv.7/Div), /Up_conv2/conv/conv.7/Erf), /Up_conv2/conv/conv.7/Constant_1_output_0 + ONNXTRT_Broadcast_372 + /Up_conv2/conv/conv.7/Add), /Up_conv2/conv/conv.7/Mul), /Up_conv2/conv/conv.7/Constant_2_output_0 + ONNXTRT_Broadcast_374 + /Up_conv2/conv/conv.7/Mul_1)",
      "LayerType": "CaskConvolution",
      "Inputs": [
        {
          "Name": "/Up_conv2/conv/conv.6/input_quantizer/QuantizeLinear_output_0",
          "Location": "Device",
          "Dimensions": [
            1,
            64,
            256,
            256
          ],
          "Format/Datatype": "Four wide channel vectorized row major Int8 format"
        }
      ],
      "Outputs": [
        {
          "Name": "/Up_conv2/conv/conv.7/Mul_1_output_0",
          "Location": "Device",
          "Dimensions": [
            1,
            16,
            256,
            256
          ],
          "Format/Datatype": "Row major linear FP32"
        }
      ],
      "ParameterType": "Convolution",
      "Kernel": [
        1,
        1
      ],
      "PaddingMode": "kEXPLICIT_ROUND_DOWN",
      "PrePadding": [
        0,
        0
      ],
      "PostPadding": [
        0,
        0
      ],
      "Stride": [
        1,
        1
      ],
      "Dilation": [
        1,
        1
      ],
      "OutMaps": 16,
      "Groups": 1,
      "Weights": {
        "Type": "Int8",
        "Count": 1024
      },
      "Bias": {
        "Type": "Float",
        "Count": 16
      },
      "HasBias": 1,
      "HasReLU": 0,
      "HasSparseWeights": 0,
      "HasDynamicFilter": 0,
      "HasDynamicBias": 0,
      "HasResidual": 0,
      "ConvXAsActInputIdx": -1,
      "BiasAsActInputIdx": -1,
      "ResAsActInputIdx": -1,
      "Activation": "GENERIC",
      "ParameterSubType": "PointWiseExpression",
      "NbPointWiseExpressionInputArgs": 1,
      "PointWiseExpressionInputArgs": [
        "arg0"
      ],
      "NbPointWiseExpressionOutputVars": 1,
      "PointWiseExpressionOutputVars": [
        "var4"
      ],
      "NbPointWiseExpressionParams": 0,
      "PointWiseExpressionParams": [],
      "NbPointWiseExpressionLiterals": 5,
      "PointWiseExpressionLiterals": [
        "1.414214e+00f",
        "0.000000e+00f",
        "1.000000e+00f",
        "0.000000e+00f",
        "5.000000e-01f"
      ],
      "NbPointWiseExpressionOperations": 5,
      "PointWiseExpressionOperations": [
        "auto const var0 = pwgen::iDiv(arg0, literal0);",
        "auto const var1 = pwgen::iErf(var0);",
        "auto const var2 = pwgen::iPlus(var1, literal2);",
        "auto const var3 = pwgen::iMul(arg0, var2);",
        "auto const var4 = pwgen::iMul(var3, literal4);"
      ],
      "TacticName": "volta_fp32_icudnn_int8x4_128x32_relu_small_nn_v1",
      "TacticValue": "0x170705f9b2fc8d53",
      "StreamId": 0,
      "Metadata": "[ONNX Layer: /Up_conv2/conv/conv.6/weight_quantizer/QuantizeLinear]\u001e[ONNX Layer: /Up_conv2/conv/conv.6/Conv]\u001e[ONNX Layer: /Up_conv2/conv/conv.7/Div]\u001e[ONNX Layer: /Up_conv2/conv/conv.7/Erf]\u001e[ONNX Layer: /Up_conv2/conv/conv.7/Add]\u001e[ONNX Layer: /Up_conv2/conv/conv.7/Mul]\u001e[ONNX Layer: /Up_conv2/conv/conv.7/Mul_1]\u001e[ONNX Layer: /Up_conv2/conv/conv.6/input_quantizer/DequantizeLinear]\u001e[ONNX Layer: /Up_conv2/conv/conv.6/weight_quantizer/DequantizeLinear]"
    },
    {
      "Name": "/Up_conv2/conv/conv.8/BatchNormalization",
      "LayerType": "Scale",
      "Inputs": [
        {
          "Name": "/Up_conv2/conv/conv.7/Mul_1_output_0",
          "Location": "Device",
          "Dimensions": [
            1,
            16,
            256,
            256
          ],
          "Format/Datatype": "Row major linear FP32"
        }
      ],
      "Outputs": [
        {
          "Name": "/Up_conv2/conv/conv.8/BatchNormalization_output_0",
          "Location": "Device",
          "Dimensions": [
            1,
            16,
            256,
            256
          ],
          "Format/Datatype": "Row major linear FP32"
        }
      ],
      "ParameterType": "Scale",
      "Mode": "CHANNEL",
      "Shift": {
        "Type": "Float",
        "Count": 16
      },
      "Scale": {
        "Type": "Float",
        "Count": 16
      },
      "Power": {
        "Type": "Float",
        "Count": 0
      },
      "Activation": "NONE",
      "ChannelAxis": 1,
      "TacticValue": "0x0000000000000000",
      "StreamId": 0,
      "Metadata": "[ONNX Layer: /Up_conv2/conv/conv.8/BatchNormalization]"
    },
    {
      "Name": "/Conv_1x1/input_quantizer/QuantizeLinear",
      "LayerType": "Reformat",
      "Inputs": [
        {
          "Name": "/Up_conv2/conv/conv.8/BatchNormalization_output_0",
          "Location": "Device",
          "Dimensions": [
            1,
            16,
            256,
            256
          ],
          "Format/Datatype": "Row major linear FP32"
        }
      ],
      "Outputs": [
        {
          "Name": "/Conv_1x1/input_quantizer/QuantizeLinear_output_0",
          "Location": "Device",
          "Dimensions": [
            1,
            16,
            256,
            256
          ],
          "Format/Datatype": "Four wide channel vectorized row major Int8 format"
        }
      ],
      "ParameterType": "Reformat",
      "Origin": "QDQ",
      "TacticValue": "0x0000000000000000",
      "StreamId": 0,
      "Metadata": "[ONNX Layer: /Conv_1x1/input_quantizer/QuantizeLinear]"
    },
    {
      "Name": "Conv_1x1.weight + /Conv_1x1/weight_quantizer/QuantizeLinear + /Conv_1x1/Conv",
      "LayerType": "CaskConvolution",
      "Inputs": [
        {
          "Name": "/Conv_1x1/input_quantizer/QuantizeLinear_output_0",
          "Location": "Device",
          "Dimensions": [
            1,
            16,
            256,
            256
          ],
          "Format/Datatype": "Four wide channel vectorized row major Int8 format"
        }
      ],
      "Outputs": [
        {
          "Name": "output",
          "Location": "Device",
          "Dimensions": [
            1,
            1,
            256,
            256
          ],
          "Format/Datatype": "Row major linear FP32"
        }
      ],
      "ParameterType": "Convolution",
      "Kernel": [
        1,
        1
      ],
      "PaddingMode": "kEXPLICIT_ROUND_DOWN",
      "PrePadding": [
        0,
        0
      ],
      "PostPadding": [
        0,
        0
      ],
      "Stride": [
        1,
        1
      ],
      "Dilation": [
        1,
        1
      ],
      "OutMaps": 1,
      "Groups": 1,
      "Weights": {
        "Type": "Int8",
        "Count": 16
      },
      "Bias": {
        "Type": "Float",
        "Count": 1
      },
      "HasBias": 1,
      "HasReLU": 0,
      "HasSparseWeights": 0,
      "HasDynamicFilter": 0,
      "HasDynamicBias": 0,
      "HasResidual": 0,
      "ConvXAsActInputIdx": -1,
      "BiasAsActInputIdx": -1,
      "ResAsActInputIdx": -1,
      "Activation": "NONE",
      "TacticName": "volta_fp32_icudnn_int8x4_128x32_relu_interior_nn_v1",
      "TacticValue": "0xc9c0872569525a26",
      "StreamId": 0,
      "Metadata": "[ONNX Layer: /Conv_1x1/weight_quantizer/QuantizeLinear]\u001e[ONNX Layer: /Conv_1x1/Conv]\u001e[ONNX Layer: /Conv_1x1/input_quantizer/DequantizeLinear]\u001e[ONNX Layer: /Conv_1x1/weight_quantizer/DequantizeLinear]"
    }
  ],
  "Bindings": [
    "input",
    "output"
  ]
}